node {
  name: "global_step/Initializer/zeros"
  op: "Const"
  attr {
    key: "_class"
    value {
      list {
        s: "loc:@global_step"
      }
    }
  }
  attr {
    key: "dtype"
    value {
      type: DT_INT64
    }
  }
  attr {
    key: "value"
    value {
      tensor {
        dtype: DT_INT64
        tensor_shape {
        }
        int64_val: 0
      }
    }
  }
}
node {
  name: "global_step"
  op: "VariableV2"
  attr {
    key: "_class"
    value {
      list {
        s: "loc:@global_step"
      }
    }
  }
  attr {
    key: "container"
    value {
      s: ""
    }
  }
  attr {
    key: "dtype"
    value {
      type: DT_INT64
    }
  }
  attr {
    key: "shape"
    value {
      shape {
      }
    }
  }
  attr {
    key: "shared_name"
    value {
      s: ""
    }
  }
}
node {
  name: "global_step/Assign"
  op: "Assign"
  input: "global_step"
  input: "global_step/Initializer/zeros"
  attr {
    key: "T"
    value {
      type: DT_INT64
    }
  }
  attr {
    key: "_class"
    value {
      list {
        s: "loc:@global_step"
      }
    }
  }
  attr {
    key: "use_locking"
    value {
      b: true
    }
  }
  attr {
    key: "validate_shape"
    value {
      b: true
    }
  }
}
node {
  name: "global_step/read"
  op: "Identity"
  input: "global_step"
  attr {
    key: "T"
    value {
      type: DT_INT64
    }
  }
  attr {
    key: "_class"
    value {
      list {
        s: "loc:@global_step"
      }
    }
  }
}
node {
  name: "enqueue_input/random_shuffle_queue"
  op: "RandomShuffleQueueV2"
  attr {
    key: "capacity"
    value {
      i: 1000
    }
  }
  attr {
    key: "component_types"
    value {
      list {
        type: DT_INT64
        type: DT_FLOAT
        type: DT_FLOAT
        type: DT_FLOAT
        type: DT_FLOAT
        type: DT_FLOAT
        type: DT_FLOAT
        type: DT_FLOAT
        type: DT_FLOAT
        type: DT_FLOAT
        type: DT_FLOAT
        type: DT_FLOAT
        type: DT_FLOAT
        type: DT_FLOAT
        type: DT_INT64
      }
    }
  }
  attr {
    key: "container"
    value {
      s: ""
    }
  }
  attr {
    key: "min_after_dequeue"
    value {
      i: 250
    }
  }
  attr {
    key: "seed"
    value {
      i: 0
    }
  }
  attr {
    key: "seed2"
    value {
      i: 0
    }
  }
  attr {
    key: "shapes"
    value {
      list {
        shape {
        }
        shape {
          dim {
            size: 1
          }
        }
        shape {
          dim {
            size: 1
          }
        }
        shape {
          dim {
            size: 1
          }
        }
        shape {
          dim {
            size: 1
          }
        }
        shape {
          dim {
            size: 1
          }
        }
        shape {
          dim {
            size: 1
          }
        }
        shape {
          dim {
            size: 1
          }
        }
        shape {
          dim {
            size: 1
          }
        }
        shape {
          dim {
            size: 1
          }
        }
        shape {
          dim {
            size: 1
          }
        }
        shape {
          dim {
            size: 1
          }
        }
        shape {
          dim {
            size: 1
          }
        }
        shape {
          dim {
            size: 1
          }
        }
        shape {
          dim {
            size: 1
          }
        }
      }
    }
  }
  attr {
    key: "shared_name"
    value {
      s: ""
    }
  }
}
node {
  name: "enqueue_input/Placeholder"
  op: "Placeholder"
  attr {
    key: "dtype"
    value {
      type: DT_INT64
    }
  }
  attr {
    key: "shape"
    value {
      shape {
        unknown_rank: true
      }
    }
  }
}
node {
  name: "enqueue_input/Placeholder_1"
  op: "Placeholder"
  attr {
    key: "dtype"
    value {
      type: DT_FLOAT
    }
  }
  attr {
    key: "shape"
    value {
      shape {
        unknown_rank: true
      }
    }
  }
}
node {
  name: "enqueue_input/Placeholder_2"
  op: "Placeholder"
  attr {
    key: "dtype"
    value {
      type: DT_FLOAT
    }
  }
  attr {
    key: "shape"
    value {
      shape {
        unknown_rank: true
      }
    }
  }
}
node {
  name: "enqueue_input/Placeholder_3"
  op: "Placeholder"
  attr {
    key: "dtype"
    value {
      type: DT_FLOAT
    }
  }
  attr {
    key: "shape"
    value {
      shape {
        unknown_rank: true
      }
    }
  }
}
node {
  name: "enqueue_input/Placeholder_4"
  op: "Placeholder"
  attr {
    key: "dtype"
    value {
      type: DT_FLOAT
    }
  }
  attr {
    key: "shape"
    value {
      shape {
        unknown_rank: true
      }
    }
  }
}
node {
  name: "enqueue_input/Placeholder_5"
  op: "Placeholder"
  attr {
    key: "dtype"
    value {
      type: DT_FLOAT
    }
  }
  attr {
    key: "shape"
    value {
      shape {
        unknown_rank: true
      }
    }
  }
}
node {
  name: "enqueue_input/Placeholder_6"
  op: "Placeholder"
  attr {
    key: "dtype"
    value {
      type: DT_FLOAT
    }
  }
  attr {
    key: "shape"
    value {
      shape {
        unknown_rank: true
      }
    }
  }
}
node {
  name: "enqueue_input/Placeholder_7"
  op: "Placeholder"
  attr {
    key: "dtype"
    value {
      type: DT_FLOAT
    }
  }
  attr {
    key: "shape"
    value {
      shape {
        unknown_rank: true
      }
    }
  }
}
node {
  name: "enqueue_input/Placeholder_8"
  op: "Placeholder"
  attr {
    key: "dtype"
    value {
      type: DT_FLOAT
    }
  }
  attr {
    key: "shape"
    value {
      shape {
        unknown_rank: true
      }
    }
  }
}
node {
  name: "enqueue_input/Placeholder_9"
  op: "Placeholder"
  attr {
    key: "dtype"
    value {
      type: DT_FLOAT
    }
  }
  attr {
    key: "shape"
    value {
      shape {
        unknown_rank: true
      }
    }
  }
}
node {
  name: "enqueue_input/Placeholder_10"
  op: "Placeholder"
  attr {
    key: "dtype"
    value {
      type: DT_FLOAT
    }
  }
  attr {
    key: "shape"
    value {
      shape {
        unknown_rank: true
      }
    }
  }
}
node {
  name: "enqueue_input/Placeholder_11"
  op: "Placeholder"
  attr {
    key: "dtype"
    value {
      type: DT_FLOAT
    }
  }
  attr {
    key: "shape"
    value {
      shape {
        unknown_rank: true
      }
    }
  }
}
node {
  name: "enqueue_input/Placeholder_12"
  op: "Placeholder"
  attr {
    key: "dtype"
    value {
      type: DT_FLOAT
    }
  }
  attr {
    key: "shape"
    value {
      shape {
        unknown_rank: true
      }
    }
  }
}
node {
  name: "enqueue_input/Placeholder_13"
  op: "Placeholder"
  attr {
    key: "dtype"
    value {
      type: DT_FLOAT
    }
  }
  attr {
    key: "shape"
    value {
      shape {
        unknown_rank: true
      }
    }
  }
}
node {
  name: "enqueue_input/Placeholder_14"
  op: "Placeholder"
  attr {
    key: "dtype"
    value {
      type: DT_INT64
    }
  }
  attr {
    key: "shape"
    value {
      shape {
        unknown_rank: true
      }
    }
  }
}
node {
  name: "enqueue_input/random_shuffle_queue_EnqueueMany"
  op: "QueueEnqueueManyV2"
  input: "enqueue_input/random_shuffle_queue"
  input: "enqueue_input/Placeholder"
  input: "enqueue_input/Placeholder_1"
  input: "enqueue_input/Placeholder_2"
  input: "enqueue_input/Placeholder_3"
  input: "enqueue_input/Placeholder_4"
  input: "enqueue_input/Placeholder_5"
  input: "enqueue_input/Placeholder_6"
  input: "enqueue_input/Placeholder_7"
  input: "enqueue_input/Placeholder_8"
  input: "enqueue_input/Placeholder_9"
  input: "enqueue_input/Placeholder_10"
  input: "enqueue_input/Placeholder_11"
  input: "enqueue_input/Placeholder_12"
  input: "enqueue_input/Placeholder_13"
  input: "enqueue_input/Placeholder_14"
  attr {
    key: "Tcomponents"
    value {
      list {
        type: DT_INT64
        type: DT_FLOAT
        type: DT_FLOAT
        type: DT_FLOAT
        type: DT_FLOAT
        type: DT_FLOAT
        type: DT_FLOAT
        type: DT_FLOAT
        type: DT_FLOAT
        type: DT_FLOAT
        type: DT_FLOAT
        type: DT_FLOAT
        type: DT_FLOAT
        type: DT_FLOAT
        type: DT_INT64
      }
    }
  }
  attr {
    key: "timeout_ms"
    value {
      i: -1
    }
  }
}
node {
  name: "enqueue_input/random_shuffle_queue_Close"
  op: "QueueCloseV2"
  input: "enqueue_input/random_shuffle_queue"
  attr {
    key: "cancel_pending_enqueues"
    value {
      b: false
    }
  }
}
node {
  name: "enqueue_input/random_shuffle_queue_Close_1"
  op: "QueueCloseV2"
  input: "enqueue_input/random_shuffle_queue"
  attr {
    key: "cancel_pending_enqueues"
    value {
      b: true
    }
  }
}
node {
  name: "enqueue_input/random_shuffle_queue_Size"
  op: "QueueSizeV2"
  input: "enqueue_input/random_shuffle_queue"
}
node {
  name: "enqueue_input/sub/y"
  op: "Const"
  attr {
    key: "dtype"
    value {
      type: DT_INT32
    }
  }
  attr {
    key: "value"
    value {
      tensor {
        dtype: DT_INT32
        tensor_shape {
        }
        int_val: 250
      }
    }
  }
}
node {
  name: "enqueue_input/sub"
  op: "Sub"
  input: "enqueue_input/random_shuffle_queue_Size"
  input: "enqueue_input/sub/y"
  attr {
    key: "T"
    value {
      type: DT_INT32
    }
  }
}
node {
  name: "enqueue_input/Maximum/x"
  op: "Const"
  attr {
    key: "dtype"
    value {
      type: DT_INT32
    }
  }
  attr {
    key: "value"
    value {
      tensor {
        dtype: DT_INT32
        tensor_shape {
        }
        int_val: 0
      }
    }
  }
}
node {
  name: "enqueue_input/Maximum"
  op: "Maximum"
  input: "enqueue_input/Maximum/x"
  input: "enqueue_input/sub"
  attr {
    key: "T"
    value {
      type: DT_INT32
    }
  }
}
node {
  name: "enqueue_input/Cast"
  op: "Cast"
  input: "enqueue_input/Maximum"
  attr {
    key: "DstT"
    value {
      type: DT_FLOAT
    }
  }
  attr {
    key: "SrcT"
    value {
      type: DT_INT32
    }
  }
  attr {
    key: "Truncate"
    value {
      b: false
    }
  }
}
node {
  name: "enqueue_input/mul/y"
  op: "Const"
  attr {
    key: "dtype"
    value {
      type: DT_FLOAT
    }
  }
  attr {
    key: "value"
    value {
      tensor {
        dtype: DT_FLOAT
        tensor_shape {
        }
        float_val: 0.0013333333
      }
    }
  }
}
node {
  name: "enqueue_input/mul"
  op: "Mul"
  input: "enqueue_input/Cast"
  input: "enqueue_input/mul/y"
  attr {
    key: "T"
    value {
      type: DT_FLOAT
    }
  }
}
node {
  name: "enqueue_input/queue/enqueue_input/random_shuffle_queuefraction_over_250_of_750_full/tags"
  op: "Const"
  attr {
    key: "dtype"
    value {
      type: DT_STRING
    }
  }
  attr {
    key: "value"
    value {
      tensor {
        dtype: DT_STRING
        tensor_shape {
        }
        string_val: "enqueue_input/queue/enqueue_input/random_shuffle_queuefraction_over_250_of_750_full"
      }
    }
  }
}
node {
  name: "enqueue_input/queue/enqueue_input/random_shuffle_queuefraction_over_250_of_750_full"
  op: "ScalarSummary"
  input: "enqueue_input/queue/enqueue_input/random_shuffle_queuefraction_over_250_of_750_full/tags"
  input: "enqueue_input/mul"
  attr {
    key: "T"
    value {
      type: DT_FLOAT
    }
  }
}
node {
  name: "random_shuffle_queue_DequeueUpTo/n"
  op: "Const"
  attr {
    key: "dtype"
    value {
      type: DT_INT32
    }
  }
  attr {
    key: "value"
    value {
      tensor {
        dtype: DT_INT32
        tensor_shape {
        }
        int_val: 32
      }
    }
  }
}
node {
  name: "random_shuffle_queue_DequeueUpTo"
  op: "QueueDequeueUpToV2"
  input: "enqueue_input/random_shuffle_queue"
  input: "random_shuffle_queue_DequeueUpTo/n"
  attr {
    key: "component_types"
    value {
      list {
        type: DT_INT64
        type: DT_FLOAT
        type: DT_FLOAT
        type: DT_FLOAT
        type: DT_FLOAT
        type: DT_FLOAT
        type: DT_FLOAT
        type: DT_FLOAT
        type: DT_FLOAT
        type: DT_FLOAT
        type: DT_FLOAT
        type: DT_FLOAT
        type: DT_FLOAT
        type: DT_FLOAT
        type: DT_INT64
      }
    }
  }
  attr {
    key: "timeout_ms"
    value {
      i: -1
    }
  }
}
node {
  name: "global_step/IsVariableInitialized"
  op: "IsVariableInitialized"
  input: "global_step"
  attr {
    key: "_class"
    value {
      list {
        s: "loc:@global_step"
      }
    }
  }
  attr {
    key: "dtype"
    value {
      type: DT_INT64
    }
  }
}
node {
  name: "global_step/cond/Switch"
  op: "Switch"
  input: "global_step/IsVariableInitialized"
  input: "global_step/IsVariableInitialized"
  attr {
    key: "T"
    value {
      type: DT_BOOL
    }
  }
}
node {
  name: "global_step/cond/switch_t"
  op: "Identity"
  input: "global_step/cond/Switch:1"
  attr {
    key: "T"
    value {
      type: DT_BOOL
    }
  }
}
node {
  name: "global_step/cond/switch_f"
  op: "Identity"
  input: "global_step/cond/Switch"
  attr {
    key: "T"
    value {
      type: DT_BOOL
    }
  }
}
node {
  name: "global_step/cond/pred_id"
  op: "Identity"
  input: "global_step/IsVariableInitialized"
  attr {
    key: "T"
    value {
      type: DT_BOOL
    }
  }
}
node {
  name: "global_step/cond/read/Switch"
  op: "RefSwitch"
  input: "global_step"
  input: "global_step/cond/pred_id"
  attr {
    key: "T"
    value {
      type: DT_INT64
    }
  }
  attr {
    key: "_class"
    value {
      list {
        s: "loc:@global_step"
      }
    }
  }
}
node {
  name: "global_step/cond/read"
  op: "Identity"
  input: "global_step/cond/read/Switch:1"
  attr {
    key: "T"
    value {
      type: DT_INT64
    }
  }
}
node {
  name: "global_step/cond/Switch_1"
  op: "Switch"
  input: "global_step/Initializer/zeros"
  input: "global_step/cond/pred_id"
  attr {
    key: "T"
    value {
      type: DT_INT64
    }
  }
  attr {
    key: "_class"
    value {
      list {
        s: "loc:@global_step"
      }
    }
  }
}
node {
  name: "global_step/cond/Merge"
  op: "Merge"
  input: "global_step/cond/Switch_1"
  input: "global_step/cond/read"
  attr {
    key: "N"
    value {
      i: 2
    }
  }
  attr {
    key: "T"
    value {
      type: DT_INT64
    }
  }
}
node {
  name: "global_step/add/y"
  op: "Const"
  attr {
    key: "dtype"
    value {
      type: DT_INT64
    }
  }
  attr {
    key: "value"
    value {
      tensor {
        dtype: DT_INT64
        tensor_shape {
        }
        int64_val: 0
      }
    }
  }
}
node {
  name: "global_step/add"
  op: "Add"
  input: "global_step/cond/Merge"
  input: "global_step/add/y"
  attr {
    key: "T"
    value {
      type: DT_INT64
    }
  }
}
node {
  name: "device_dummy_0/Initializer/random_uniform/shape"
  op: "Const"
  device: "/device:CPU:0"
  attr {
    key: "_class"
    value {
      list {
        s: "loc:@device_dummy_0"
      }
    }
  }
  attr {
    key: "dtype"
    value {
      type: DT_INT32
    }
  }
  attr {
    key: "value"
    value {
      tensor {
        dtype: DT_INT32
        tensor_shape {
          dim {
            size: 1
          }
        }
        int_val: 0
      }
    }
  }
}
node {
  name: "device_dummy_0/Initializer/random_uniform/min"
  op: "Const"
  device: "/device:CPU:0"
  attr {
    key: "_class"
    value {
      list {
        s: "loc:@device_dummy_0"
      }
    }
  }
  attr {
    key: "dtype"
    value {
      type: DT_FLOAT
    }
  }
  attr {
    key: "value"
    value {
      tensor {
        dtype: DT_FLOAT
        tensor_shape {
        }
        float_val: -1.7320508
      }
    }
  }
}
node {
  name: "device_dummy_0/Initializer/random_uniform/max"
  op: "Const"
  device: "/device:CPU:0"
  attr {
    key: "_class"
    value {
      list {
        s: "loc:@device_dummy_0"
      }
    }
  }
  attr {
    key: "dtype"
    value {
      type: DT_FLOAT
    }
  }
  attr {
    key: "value"
    value {
      tensor {
        dtype: DT_FLOAT
        tensor_shape {
        }
        float_val: 1.7320508
      }
    }
  }
}
node {
  name: "device_dummy_0/Initializer/random_uniform/RandomUniform"
  op: "RandomUniform"
  input: "device_dummy_0/Initializer/random_uniform/shape"
  device: "/device:CPU:0"
  attr {
    key: "T"
    value {
      type: DT_INT32
    }
  }
  attr {
    key: "_class"
    value {
      list {
        s: "loc:@device_dummy_0"
      }
    }
  }
  attr {
    key: "dtype"
    value {
      type: DT_FLOAT
    }
  }
  attr {
    key: "seed"
    value {
      i: 0
    }
  }
  attr {
    key: "seed2"
    value {
      i: 0
    }
  }
}
node {
  name: "device_dummy_0/Initializer/random_uniform/sub"
  op: "Sub"
  input: "device_dummy_0/Initializer/random_uniform/max"
  input: "device_dummy_0/Initializer/random_uniform/min"
  device: "/device:CPU:0"
  attr {
    key: "T"
    value {
      type: DT_FLOAT
    }
  }
  attr {
    key: "_class"
    value {
      list {
        s: "loc:@device_dummy_0"
      }
    }
  }
}
node {
  name: "device_dummy_0/Initializer/random_uniform/mul"
  op: "Mul"
  input: "device_dummy_0/Initializer/random_uniform/RandomUniform"
  input: "device_dummy_0/Initializer/random_uniform/sub"
  device: "/device:CPU:0"
  attr {
    key: "T"
    value {
      type: DT_FLOAT
    }
  }
  attr {
    key: "_class"
    value {
      list {
        s: "loc:@device_dummy_0"
      }
    }
  }
}
node {
  name: "device_dummy_0/Initializer/random_uniform"
  op: "Add"
  input: "device_dummy_0/Initializer/random_uniform/mul"
  input: "device_dummy_0/Initializer/random_uniform/min"
  device: "/device:CPU:0"
  attr {
    key: "T"
    value {
      type: DT_FLOAT
    }
  }
  attr {
    key: "_class"
    value {
      list {
        s: "loc:@device_dummy_0"
      }
    }
  }
}
node {
  name: "device_dummy_0"
  op: "VariableV2"
  device: "/device:CPU:0"
  attr {
    key: "_class"
    value {
      list {
        s: "loc:@device_dummy_0"
      }
    }
  }
  attr {
    key: "container"
    value {
      s: ""
    }
  }
  attr {
    key: "dtype"
    value {
      type: DT_FLOAT
    }
  }
  attr {
    key: "shape"
    value {
      shape {
        dim {
        }
      }
    }
  }
  attr {
    key: "shared_name"
    value {
      s: ""
    }
  }
}
node {
  name: "device_dummy_0/Assign"
  op: "Assign"
  input: "device_dummy_0"
  input: "device_dummy_0/Initializer/random_uniform"
  device: "/device:CPU:0"
  attr {
    key: "T"
    value {
      type: DT_FLOAT
    }
  }
  attr {
    key: "_class"
    value {
      list {
        s: "loc:@device_dummy_0"
      }
    }
  }
  attr {
    key: "use_locking"
    value {
      b: true
    }
  }
  attr {
    key: "validate_shape"
    value {
      b: true
    }
  }
}
node {
  name: "device_dummy_0/read"
  op: "Identity"
  input: "device_dummy_0"
  device: "/device:CPU:0"
  attr {
    key: "T"
    value {
      type: DT_FLOAT
    }
  }
  attr {
    key: "_class"
    value {
      list {
        s: "loc:@device_dummy_0"
      }
    }
  }
}
node {
  name: "device_dummy_1/Initializer/random_uniform/shape"
  op: "Const"
  device: "/device:CPU:0"
  attr {
    key: "_class"
    value {
      list {
        s: "loc:@device_dummy_1"
      }
    }
  }
  attr {
    key: "dtype"
    value {
      type: DT_INT32
    }
  }
  attr {
    key: "value"
    value {
      tensor {
        dtype: DT_INT32
        tensor_shape {
          dim {
            size: 1
          }
        }
        int_val: 0
      }
    }
  }
}
node {
  name: "device_dummy_1/Initializer/random_uniform/min"
  op: "Const"
  device: "/device:CPU:0"
  attr {
    key: "_class"
    value {
      list {
        s: "loc:@device_dummy_1"
      }
    }
  }
  attr {
    key: "dtype"
    value {
      type: DT_FLOAT
    }
  }
  attr {
    key: "value"
    value {
      tensor {
        dtype: DT_FLOAT
        tensor_shape {
        }
        float_val: -1.7320508
      }
    }
  }
}
node {
  name: "device_dummy_1/Initializer/random_uniform/max"
  op: "Const"
  device: "/device:CPU:0"
  attr {
    key: "_class"
    value {
      list {
        s: "loc:@device_dummy_1"
      }
    }
  }
  attr {
    key: "dtype"
    value {
      type: DT_FLOAT
    }
  }
  attr {
    key: "value"
    value {
      tensor {
        dtype: DT_FLOAT
        tensor_shape {
        }
        float_val: 1.7320508
      }
    }
  }
}
node {
  name: "device_dummy_1/Initializer/random_uniform/RandomUniform"
  op: "RandomUniform"
  input: "device_dummy_1/Initializer/random_uniform/shape"
  device: "/device:CPU:0"
  attr {
    key: "T"
    value {
      type: DT_INT32
    }
  }
  attr {
    key: "_class"
    value {
      list {
        s: "loc:@device_dummy_1"
      }
    }
  }
  attr {
    key: "dtype"
    value {
      type: DT_FLOAT
    }
  }
  attr {
    key: "seed"
    value {
      i: 0
    }
  }
  attr {
    key: "seed2"
    value {
      i: 0
    }
  }
}
node {
  name: "device_dummy_1/Initializer/random_uniform/sub"
  op: "Sub"
  input: "device_dummy_1/Initializer/random_uniform/max"
  input: "device_dummy_1/Initializer/random_uniform/min"
  device: "/device:CPU:0"
  attr {
    key: "T"
    value {
      type: DT_FLOAT
    }
  }
  attr {
    key: "_class"
    value {
      list {
        s: "loc:@device_dummy_1"
      }
    }
  }
}
node {
  name: "device_dummy_1/Initializer/random_uniform/mul"
  op: "Mul"
  input: "device_dummy_1/Initializer/random_uniform/RandomUniform"
  input: "device_dummy_1/Initializer/random_uniform/sub"
  device: "/device:CPU:0"
  attr {
    key: "T"
    value {
      type: DT_FLOAT
    }
  }
  attr {
    key: "_class"
    value {
      list {
        s: "loc:@device_dummy_1"
      }
    }
  }
}
node {
  name: "device_dummy_1/Initializer/random_uniform"
  op: "Add"
  input: "device_dummy_1/Initializer/random_uniform/mul"
  input: "device_dummy_1/Initializer/random_uniform/min"
  device: "/device:CPU:0"
  attr {
    key: "T"
    value {
      type: DT_FLOAT
    }
  }
  attr {
    key: "_class"
    value {
      list {
        s: "loc:@device_dummy_1"
      }
    }
  }
}
node {
  name: "device_dummy_1"
  op: "VariableV2"
  device: "/device:CPU:0"
  attr {
    key: "_class"
    value {
      list {
        s: "loc:@device_dummy_1"
      }
    }
  }
  attr {
    key: "container"
    value {
      s: ""
    }
  }
  attr {
    key: "dtype"
    value {
      type: DT_FLOAT
    }
  }
  attr {
    key: "shape"
    value {
      shape {
        dim {
        }
      }
    }
  }
  attr {
    key: "shared_name"
    value {
      s: ""
    }
  }
}
node {
  name: "device_dummy_1/Assign"
  op: "Assign"
  input: "device_dummy_1"
  input: "device_dummy_1/Initializer/random_uniform"
  device: "/device:CPU:0"
  attr {
    key: "T"
    value {
      type: DT_FLOAT
    }
  }
  attr {
    key: "_class"
    value {
      list {
        s: "loc:@device_dummy_1"
      }
    }
  }
  attr {
    key: "use_locking"
    value {
      b: true
    }
  }
  attr {
    key: "validate_shape"
    value {
      b: true
    }
  }
}
node {
  name: "device_dummy_1/read"
  op: "Identity"
  input: "device_dummy_1"
  device: "/device:CPU:0"
  attr {
    key: "T"
    value {
      type: DT_FLOAT
    }
  }
  attr {
    key: "_class"
    value {
      list {
        s: "loc:@device_dummy_1"
      }
    }
  }
}
node {
  name: "device_dummy_2/Initializer/random_uniform/shape"
  op: "Const"
  device: "/device:CPU:0"
  attr {
    key: "_class"
    value {
      list {
        s: "loc:@device_dummy_2"
      }
    }
  }
  attr {
    key: "dtype"
    value {
      type: DT_INT32
    }
  }
  attr {
    key: "value"
    value {
      tensor {
        dtype: DT_INT32
        tensor_shape {
          dim {
            size: 1
          }
        }
        int_val: 0
      }
    }
  }
}
node {
  name: "device_dummy_2/Initializer/random_uniform/min"
  op: "Const"
  device: "/device:CPU:0"
  attr {
    key: "_class"
    value {
      list {
        s: "loc:@device_dummy_2"
      }
    }
  }
  attr {
    key: "dtype"
    value {
      type: DT_FLOAT
    }
  }
  attr {
    key: "value"
    value {
      tensor {
        dtype: DT_FLOAT
        tensor_shape {
        }
        float_val: -1.7320508
      }
    }
  }
}
node {
  name: "device_dummy_2/Initializer/random_uniform/max"
  op: "Const"
  device: "/device:CPU:0"
  attr {
    key: "_class"
    value {
      list {
        s: "loc:@device_dummy_2"
      }
    }
  }
  attr {
    key: "dtype"
    value {
      type: DT_FLOAT
    }
  }
  attr {
    key: "value"
    value {
      tensor {
        dtype: DT_FLOAT
        tensor_shape {
        }
        float_val: 1.7320508
      }
    }
  }
}
node {
  name: "device_dummy_2/Initializer/random_uniform/RandomUniform"
  op: "RandomUniform"
  input: "device_dummy_2/Initializer/random_uniform/shape"
  device: "/device:CPU:0"
  attr {
    key: "T"
    value {
      type: DT_INT32
    }
  }
  attr {
    key: "_class"
    value {
      list {
        s: "loc:@device_dummy_2"
      }
    }
  }
  attr {
    key: "dtype"
    value {
      type: DT_FLOAT
    }
  }
  attr {
    key: "seed"
    value {
      i: 0
    }
  }
  attr {
    key: "seed2"
    value {
      i: 0
    }
  }
}
node {
  name: "device_dummy_2/Initializer/random_uniform/sub"
  op: "Sub"
  input: "device_dummy_2/Initializer/random_uniform/max"
  input: "device_dummy_2/Initializer/random_uniform/min"
  device: "/device:CPU:0"
  attr {
    key: "T"
    value {
      type: DT_FLOAT
    }
  }
  attr {
    key: "_class"
    value {
      list {
        s: "loc:@device_dummy_2"
      }
    }
  }
}
node {
  name: "device_dummy_2/Initializer/random_uniform/mul"
  op: "Mul"
  input: "device_dummy_2/Initializer/random_uniform/RandomUniform"
  input: "device_dummy_2/Initializer/random_uniform/sub"
  device: "/device:CPU:0"
  attr {
    key: "T"
    value {
      type: DT_FLOAT
    }
  }
  attr {
    key: "_class"
    value {
      list {
        s: "loc:@device_dummy_2"
      }
    }
  }
}
node {
  name: "device_dummy_2/Initializer/random_uniform"
  op: "Add"
  input: "device_dummy_2/Initializer/random_uniform/mul"
  input: "device_dummy_2/Initializer/random_uniform/min"
  device: "/device:CPU:0"
  attr {
    key: "T"
    value {
      type: DT_FLOAT
    }
  }
  attr {
    key: "_class"
    value {
      list {
        s: "loc:@device_dummy_2"
      }
    }
  }
}
node {
  name: "device_dummy_2"
  op: "VariableV2"
  device: "/device:CPU:0"
  attr {
    key: "_class"
    value {
      list {
        s: "loc:@device_dummy_2"
      }
    }
  }
  attr {
    key: "container"
    value {
      s: ""
    }
  }
  attr {
    key: "dtype"
    value {
      type: DT_FLOAT
    }
  }
  attr {
    key: "shape"
    value {
      shape {
        dim {
        }
      }
    }
  }
  attr {
    key: "shared_name"
    value {
      s: ""
    }
  }
}
node {
  name: "device_dummy_2/Assign"
  op: "Assign"
  input: "device_dummy_2"
  input: "device_dummy_2/Initializer/random_uniform"
  device: "/device:CPU:0"
  attr {
    key: "T"
    value {
      type: DT_FLOAT
    }
  }
  attr {
    key: "_class"
    value {
      list {
        s: "loc:@device_dummy_2"
      }
    }
  }
  attr {
    key: "use_locking"
    value {
      b: true
    }
  }
  attr {
    key: "validate_shape"
    value {
      b: true
    }
  }
}
node {
  name: "device_dummy_2/read"
  op: "Identity"
  input: "device_dummy_2"
  device: "/device:CPU:0"
  attr {
    key: "T"
    value {
      type: DT_FLOAT
    }
  }
  attr {
    key: "_class"
    value {
      list {
        s: "loc:@device_dummy_2"
      }
    }
  }
}
node {
  name: "device_dummy_3/Initializer/random_uniform/shape"
  op: "Const"
  device: "/device:CPU:0"
  attr {
    key: "_class"
    value {
      list {
        s: "loc:@device_dummy_3"
      }
    }
  }
  attr {
    key: "dtype"
    value {
      type: DT_INT32
    }
  }
  attr {
    key: "value"
    value {
      tensor {
        dtype: DT_INT32
        tensor_shape {
          dim {
            size: 1
          }
        }
        int_val: 0
      }
    }
  }
}
node {
  name: "device_dummy_3/Initializer/random_uniform/min"
  op: "Const"
  device: "/device:CPU:0"
  attr {
    key: "_class"
    value {
      list {
        s: "loc:@device_dummy_3"
      }
    }
  }
  attr {
    key: "dtype"
    value {
      type: DT_FLOAT
    }
  }
  attr {
    key: "value"
    value {
      tensor {
        dtype: DT_FLOAT
        tensor_shape {
        }
        float_val: -1.7320508
      }
    }
  }
}
node {
  name: "device_dummy_3/Initializer/random_uniform/max"
  op: "Const"
  device: "/device:CPU:0"
  attr {
    key: "_class"
    value {
      list {
        s: "loc:@device_dummy_3"
      }
    }
  }
  attr {
    key: "dtype"
    value {
      type: DT_FLOAT
    }
  }
  attr {
    key: "value"
    value {
      tensor {
        dtype: DT_FLOAT
        tensor_shape {
        }
        float_val: 1.7320508
      }
    }
  }
}
node {
  name: "device_dummy_3/Initializer/random_uniform/RandomUniform"
  op: "RandomUniform"
  input: "device_dummy_3/Initializer/random_uniform/shape"
  device: "/device:CPU:0"
  attr {
    key: "T"
    value {
      type: DT_INT32
    }
  }
  attr {
    key: "_class"
    value {
      list {
        s: "loc:@device_dummy_3"
      }
    }
  }
  attr {
    key: "dtype"
    value {
      type: DT_FLOAT
    }
  }
  attr {
    key: "seed"
    value {
      i: 0
    }
  }
  attr {
    key: "seed2"
    value {
      i: 0
    }
  }
}
node {
  name: "device_dummy_3/Initializer/random_uniform/sub"
  op: "Sub"
  input: "device_dummy_3/Initializer/random_uniform/max"
  input: "device_dummy_3/Initializer/random_uniform/min"
  device: "/device:CPU:0"
  attr {
    key: "T"
    value {
      type: DT_FLOAT
    }
  }
  attr {
    key: "_class"
    value {
      list {
        s: "loc:@device_dummy_3"
      }
    }
  }
}
node {
  name: "device_dummy_3/Initializer/random_uniform/mul"
  op: "Mul"
  input: "device_dummy_3/Initializer/random_uniform/RandomUniform"
  input: "device_dummy_3/Initializer/random_uniform/sub"
  device: "/device:CPU:0"
  attr {
    key: "T"
    value {
      type: DT_FLOAT
    }
  }
  attr {
    key: "_class"
    value {
      list {
        s: "loc:@device_dummy_3"
      }
    }
  }
}
node {
  name: "device_dummy_3/Initializer/random_uniform"
  op: "Add"
  input: "device_dummy_3/Initializer/random_uniform/mul"
  input: "device_dummy_3/Initializer/random_uniform/min"
  device: "/device:CPU:0"
  attr {
    key: "T"
    value {
      type: DT_FLOAT
    }
  }
  attr {
    key: "_class"
    value {
      list {
        s: "loc:@device_dummy_3"
      }
    }
  }
}
node {
  name: "device_dummy_3"
  op: "VariableV2"
  device: "/device:CPU:0"
  attr {
    key: "_class"
    value {
      list {
        s: "loc:@device_dummy_3"
      }
    }
  }
  attr {
    key: "container"
    value {
      s: ""
    }
  }
  attr {
    key: "dtype"
    value {
      type: DT_FLOAT
    }
  }
  attr {
    key: "shape"
    value {
      shape {
        dim {
        }
      }
    }
  }
  attr {
    key: "shared_name"
    value {
      s: ""
    }
  }
}
node {
  name: "device_dummy_3/Assign"
  op: "Assign"
  input: "device_dummy_3"
  input: "device_dummy_3/Initializer/random_uniform"
  device: "/device:CPU:0"
  attr {
    key: "T"
    value {
      type: DT_FLOAT
    }
  }
  attr {
    key: "_class"
    value {
      list {
        s: "loc:@device_dummy_3"
      }
    }
  }
  attr {
    key: "use_locking"
    value {
      b: true
    }
  }
  attr {
    key: "validate_shape"
    value {
      b: true
    }
  }
}
node {
  name: "device_dummy_3/read"
  op: "Identity"
  input: "device_dummy_3"
  device: "/device:CPU:0"
  attr {
    key: "T"
    value {
      type: DT_FLOAT
    }
  }
  attr {
    key: "_class"
    value {
      list {
        s: "loc:@device_dummy_3"
      }
    }
  }
}
node {
  name: "device_dummy_4/Initializer/random_uniform/shape"
  op: "Const"
  device: "/device:CPU:0"
  attr {
    key: "_class"
    value {
      list {
        s: "loc:@device_dummy_4"
      }
    }
  }
  attr {
    key: "dtype"
    value {
      type: DT_INT32
    }
  }
  attr {
    key: "value"
    value {
      tensor {
        dtype: DT_INT32
        tensor_shape {
          dim {
            size: 1
          }
        }
        int_val: 0
      }
    }
  }
}
node {
  name: "device_dummy_4/Initializer/random_uniform/min"
  op: "Const"
  device: "/device:CPU:0"
  attr {
    key: "_class"
    value {
      list {
        s: "loc:@device_dummy_4"
      }
    }
  }
  attr {
    key: "dtype"
    value {
      type: DT_FLOAT
    }
  }
  attr {
    key: "value"
    value {
      tensor {
        dtype: DT_FLOAT
        tensor_shape {
        }
        float_val: -1.7320508
      }
    }
  }
}
node {
  name: "device_dummy_4/Initializer/random_uniform/max"
  op: "Const"
  device: "/device:CPU:0"
  attr {
    key: "_class"
    value {
      list {
        s: "loc:@device_dummy_4"
      }
    }
  }
  attr {
    key: "dtype"
    value {
      type: DT_FLOAT
    }
  }
  attr {
    key: "value"
    value {
      tensor {
        dtype: DT_FLOAT
        tensor_shape {
        }
        float_val: 1.7320508
      }
    }
  }
}
node {
  name: "device_dummy_4/Initializer/random_uniform/RandomUniform"
  op: "RandomUniform"
  input: "device_dummy_4/Initializer/random_uniform/shape"
  device: "/device:CPU:0"
  attr {
    key: "T"
    value {
      type: DT_INT32
    }
  }
  attr {
    key: "_class"
    value {
      list {
        s: "loc:@device_dummy_4"
      }
    }
  }
  attr {
    key: "dtype"
    value {
      type: DT_FLOAT
    }
  }
  attr {
    key: "seed"
    value {
      i: 0
    }
  }
  attr {
    key: "seed2"
    value {
      i: 0
    }
  }
}
node {
  name: "device_dummy_4/Initializer/random_uniform/sub"
  op: "Sub"
  input: "device_dummy_4/Initializer/random_uniform/max"
  input: "device_dummy_4/Initializer/random_uniform/min"
  device: "/device:CPU:0"
  attr {
    key: "T"
    value {
      type: DT_FLOAT
    }
  }
  attr {
    key: "_class"
    value {
      list {
        s: "loc:@device_dummy_4"
      }
    }
  }
}
node {
  name: "device_dummy_4/Initializer/random_uniform/mul"
  op: "Mul"
  input: "device_dummy_4/Initializer/random_uniform/RandomUniform"
  input: "device_dummy_4/Initializer/random_uniform/sub"
  device: "/device:CPU:0"
  attr {
    key: "T"
    value {
      type: DT_FLOAT
    }
  }
  attr {
    key: "_class"
    value {
      list {
        s: "loc:@device_dummy_4"
      }
    }
  }
}
node {
  name: "device_dummy_4/Initializer/random_uniform"
  op: "Add"
  input: "device_dummy_4/Initializer/random_uniform/mul"
  input: "device_dummy_4/Initializer/random_uniform/min"
  device: "/device:CPU:0"
  attr {
    key: "T"
    value {
      type: DT_FLOAT
    }
  }
  attr {
    key: "_class"
    value {
      list {
        s: "loc:@device_dummy_4"
      }
    }
  }
}
node {
  name: "device_dummy_4"
  op: "VariableV2"
  device: "/device:CPU:0"
  attr {
    key: "_class"
    value {
      list {
        s: "loc:@device_dummy_4"
      }
    }
  }
  attr {
    key: "container"
    value {
      s: ""
    }
  }
  attr {
    key: "dtype"
    value {
      type: DT_FLOAT
    }
  }
  attr {
    key: "shape"
    value {
      shape {
        dim {
        }
      }
    }
  }
  attr {
    key: "shared_name"
    value {
      s: ""
    }
  }
}
node {
  name: "device_dummy_4/Assign"
  op: "Assign"
  input: "device_dummy_4"
  input: "device_dummy_4/Initializer/random_uniform"
  device: "/device:CPU:0"
  attr {
    key: "T"
    value {
      type: DT_FLOAT
    }
  }
  attr {
    key: "_class"
    value {
      list {
        s: "loc:@device_dummy_4"
      }
    }
  }
  attr {
    key: "use_locking"
    value {
      b: true
    }
  }
  attr {
    key: "validate_shape"
    value {
      b: true
    }
  }
}
node {
  name: "device_dummy_4/read"
  op: "Identity"
  input: "device_dummy_4"
  device: "/device:CPU:0"
  attr {
    key: "T"
    value {
      type: DT_FLOAT
    }
  }
  attr {
    key: "_class"
    value {
      list {
        s: "loc:@device_dummy_4"
      }
    }
  }
}
node {
  name: "device_dummy_5/Initializer/random_uniform/shape"
  op: "Const"
  device: "/device:CPU:0"
  attr {
    key: "_class"
    value {
      list {
        s: "loc:@device_dummy_5"
      }
    }
  }
  attr {
    key: "dtype"
    value {
      type: DT_INT32
    }
  }
  attr {
    key: "value"
    value {
      tensor {
        dtype: DT_INT32
        tensor_shape {
          dim {
            size: 1
          }
        }
        int_val: 0
      }
    }
  }
}
node {
  name: "device_dummy_5/Initializer/random_uniform/min"
  op: "Const"
  device: "/device:CPU:0"
  attr {
    key: "_class"
    value {
      list {
        s: "loc:@device_dummy_5"
      }
    }
  }
  attr {
    key: "dtype"
    value {
      type: DT_FLOAT
    }
  }
  attr {
    key: "value"
    value {
      tensor {
        dtype: DT_FLOAT
        tensor_shape {
        }
        float_val: -1.7320508
      }
    }
  }
}
node {
  name: "device_dummy_5/Initializer/random_uniform/max"
  op: "Const"
  device: "/device:CPU:0"
  attr {
    key: "_class"
    value {
      list {
        s: "loc:@device_dummy_5"
      }
    }
  }
  attr {
    key: "dtype"
    value {
      type: DT_FLOAT
    }
  }
  attr {
    key: "value"
    value {
      tensor {
        dtype: DT_FLOAT
        tensor_shape {
        }
        float_val: 1.7320508
      }
    }
  }
}
node {
  name: "device_dummy_5/Initializer/random_uniform/RandomUniform"
  op: "RandomUniform"
  input: "device_dummy_5/Initializer/random_uniform/shape"
  device: "/device:CPU:0"
  attr {
    key: "T"
    value {
      type: DT_INT32
    }
  }
  attr {
    key: "_class"
    value {
      list {
        s: "loc:@device_dummy_5"
      }
    }
  }
  attr {
    key: "dtype"
    value {
      type: DT_FLOAT
    }
  }
  attr {
    key: "seed"
    value {
      i: 0
    }
  }
  attr {
    key: "seed2"
    value {
      i: 0
    }
  }
}
node {
  name: "device_dummy_5/Initializer/random_uniform/sub"
  op: "Sub"
  input: "device_dummy_5/Initializer/random_uniform/max"
  input: "device_dummy_5/Initializer/random_uniform/min"
  device: "/device:CPU:0"
  attr {
    key: "T"
    value {
      type: DT_FLOAT
    }
  }
  attr {
    key: "_class"
    value {
      list {
        s: "loc:@device_dummy_5"
      }
    }
  }
}
node {
  name: "device_dummy_5/Initializer/random_uniform/mul"
  op: "Mul"
  input: "device_dummy_5/Initializer/random_uniform/RandomUniform"
  input: "device_dummy_5/Initializer/random_uniform/sub"
  device: "/device:CPU:0"
  attr {
    key: "T"
    value {
      type: DT_FLOAT
    }
  }
  attr {
    key: "_class"
    value {
      list {
        s: "loc:@device_dummy_5"
      }
    }
  }
}
node {
  name: "device_dummy_5/Initializer/random_uniform"
  op: "Add"
  input: "device_dummy_5/Initializer/random_uniform/mul"
  input: "device_dummy_5/Initializer/random_uniform/min"
  device: "/device:CPU:0"
  attr {
    key: "T"
    value {
      type: DT_FLOAT
    }
  }
  attr {
    key: "_class"
    value {
      list {
        s: "loc:@device_dummy_5"
      }
    }
  }
}
node {
  name: "device_dummy_5"
  op: "VariableV2"
  device: "/device:CPU:0"
  attr {
    key: "_class"
    value {
      list {
        s: "loc:@device_dummy_5"
      }
    }
  }
  attr {
    key: "container"
    value {
      s: ""
    }
  }
  attr {
    key: "dtype"
    value {
      type: DT_FLOAT
    }
  }
  attr {
    key: "shape"
    value {
      shape {
        dim {
        }
      }
    }
  }
  attr {
    key: "shared_name"
    value {
      s: ""
    }
  }
}
node {
  name: "device_dummy_5/Assign"
  op: "Assign"
  input: "device_dummy_5"
  input: "device_dummy_5/Initializer/random_uniform"
  device: "/device:CPU:0"
  attr {
    key: "T"
    value {
      type: DT_FLOAT
    }
  }
  attr {
    key: "_class"
    value {
      list {
        s: "loc:@device_dummy_5"
      }
    }
  }
  attr {
    key: "use_locking"
    value {
      b: true
    }
  }
  attr {
    key: "validate_shape"
    value {
      b: true
    }
  }
}
node {
  name: "device_dummy_5/read"
  op: "Identity"
  input: "device_dummy_5"
  device: "/device:CPU:0"
  attr {
    key: "T"
    value {
      type: DT_FLOAT
    }
  }
  attr {
    key: "_class"
    value {
      list {
        s: "loc:@device_dummy_5"
      }
    }
  }
}
node {
  name: "device_dummy_6/Initializer/random_uniform/shape"
  op: "Const"
  device: "/device:CPU:0"
  attr {
    key: "_class"
    value {
      list {
        s: "loc:@device_dummy_6"
      }
    }
  }
  attr {
    key: "dtype"
    value {
      type: DT_INT32
    }
  }
  attr {
    key: "value"
    value {
      tensor {
        dtype: DT_INT32
        tensor_shape {
          dim {
            size: 1
          }
        }
        int_val: 0
      }
    }
  }
}
node {
  name: "device_dummy_6/Initializer/random_uniform/min"
  op: "Const"
  device: "/device:CPU:0"
  attr {
    key: "_class"
    value {
      list {
        s: "loc:@device_dummy_6"
      }
    }
  }
  attr {
    key: "dtype"
    value {
      type: DT_FLOAT
    }
  }
  attr {
    key: "value"
    value {
      tensor {
        dtype: DT_FLOAT
        tensor_shape {
        }
        float_val: -1.7320508
      }
    }
  }
}
node {
  name: "device_dummy_6/Initializer/random_uniform/max"
  op: "Const"
  device: "/device:CPU:0"
  attr {
    key: "_class"
    value {
      list {
        s: "loc:@device_dummy_6"
      }
    }
  }
  attr {
    key: "dtype"
    value {
      type: DT_FLOAT
    }
  }
  attr {
    key: "value"
    value {
      tensor {
        dtype: DT_FLOAT
        tensor_shape {
        }
        float_val: 1.7320508
      }
    }
  }
}
node {
  name: "device_dummy_6/Initializer/random_uniform/RandomUniform"
  op: "RandomUniform"
  input: "device_dummy_6/Initializer/random_uniform/shape"
  device: "/device:CPU:0"
  attr {
    key: "T"
    value {
      type: DT_INT32
    }
  }
  attr {
    key: "_class"
    value {
      list {
        s: "loc:@device_dummy_6"
      }
    }
  }
  attr {
    key: "dtype"
    value {
      type: DT_FLOAT
    }
  }
  attr {
    key: "seed"
    value {
      i: 0
    }
  }
  attr {
    key: "seed2"
    value {
      i: 0
    }
  }
}
node {
  name: "device_dummy_6/Initializer/random_uniform/sub"
  op: "Sub"
  input: "device_dummy_6/Initializer/random_uniform/max"
  input: "device_dummy_6/Initializer/random_uniform/min"
  device: "/device:CPU:0"
  attr {
    key: "T"
    value {
      type: DT_FLOAT
    }
  }
  attr {
    key: "_class"
    value {
      list {
        s: "loc:@device_dummy_6"
      }
    }
  }
}
node {
  name: "device_dummy_6/Initializer/random_uniform/mul"
  op: "Mul"
  input: "device_dummy_6/Initializer/random_uniform/RandomUniform"
  input: "device_dummy_6/Initializer/random_uniform/sub"
  device: "/device:CPU:0"
  attr {
    key: "T"
    value {
      type: DT_FLOAT
    }
  }
  attr {
    key: "_class"
    value {
      list {
        s: "loc:@device_dummy_6"
      }
    }
  }
}
node {
  name: "device_dummy_6/Initializer/random_uniform"
  op: "Add"
  input: "device_dummy_6/Initializer/random_uniform/mul"
  input: "device_dummy_6/Initializer/random_uniform/min"
  device: "/device:CPU:0"
  attr {
    key: "T"
    value {
      type: DT_FLOAT
    }
  }
  attr {
    key: "_class"
    value {
      list {
        s: "loc:@device_dummy_6"
      }
    }
  }
}
node {
  name: "device_dummy_6"
  op: "VariableV2"
  device: "/device:CPU:0"
  attr {
    key: "_class"
    value {
      list {
        s: "loc:@device_dummy_6"
      }
    }
  }
  attr {
    key: "container"
    value {
      s: ""
    }
  }
  attr {
    key: "dtype"
    value {
      type: DT_FLOAT
    }
  }
  attr {
    key: "shape"
    value {
      shape {
        dim {
        }
      }
    }
  }
  attr {
    key: "shared_name"
    value {
      s: ""
    }
  }
}
node {
  name: "device_dummy_6/Assign"
  op: "Assign"
  input: "device_dummy_6"
  input: "device_dummy_6/Initializer/random_uniform"
  device: "/device:CPU:0"
  attr {
    key: "T"
    value {
      type: DT_FLOAT
    }
  }
  attr {
    key: "_class"
    value {
      list {
        s: "loc:@device_dummy_6"
      }
    }
  }
  attr {
    key: "use_locking"
    value {
      b: true
    }
  }
  attr {
    key: "validate_shape"
    value {
      b: true
    }
  }
}
node {
  name: "device_dummy_6/read"
  op: "Identity"
  input: "device_dummy_6"
  device: "/device:CPU:0"
  attr {
    key: "T"
    value {
      type: DT_FLOAT
    }
  }
  attr {
    key: "_class"
    value {
      list {
        s: "loc:@device_dummy_6"
      }
    }
  }
}
node {
  name: "device_dummy_7/Initializer/random_uniform/shape"
  op: "Const"
  device: "/device:CPU:0"
  attr {
    key: "_class"
    value {
      list {
        s: "loc:@device_dummy_7"
      }
    }
  }
  attr {
    key: "dtype"
    value {
      type: DT_INT32
    }
  }
  attr {
    key: "value"
    value {
      tensor {
        dtype: DT_INT32
        tensor_shape {
          dim {
            size: 1
          }
        }
        int_val: 0
      }
    }
  }
}
node {
  name: "device_dummy_7/Initializer/random_uniform/min"
  op: "Const"
  device: "/device:CPU:0"
  attr {
    key: "_class"
    value {
      list {
        s: "loc:@device_dummy_7"
      }
    }
  }
  attr {
    key: "dtype"
    value {
      type: DT_FLOAT
    }
  }
  attr {
    key: "value"
    value {
      tensor {
        dtype: DT_FLOAT
        tensor_shape {
        }
        float_val: -1.7320508
      }
    }
  }
}
node {
  name: "device_dummy_7/Initializer/random_uniform/max"
  op: "Const"
  device: "/device:CPU:0"
  attr {
    key: "_class"
    value {
      list {
        s: "loc:@device_dummy_7"
      }
    }
  }
  attr {
    key: "dtype"
    value {
      type: DT_FLOAT
    }
  }
  attr {
    key: "value"
    value {
      tensor {
        dtype: DT_FLOAT
        tensor_shape {
        }
        float_val: 1.7320508
      }
    }
  }
}
node {
  name: "device_dummy_7/Initializer/random_uniform/RandomUniform"
  op: "RandomUniform"
  input: "device_dummy_7/Initializer/random_uniform/shape"
  device: "/device:CPU:0"
  attr {
    key: "T"
    value {
      type: DT_INT32
    }
  }
  attr {
    key: "_class"
    value {
      list {
        s: "loc:@device_dummy_7"
      }
    }
  }
  attr {
    key: "dtype"
    value {
      type: DT_FLOAT
    }
  }
  attr {
    key: "seed"
    value {
      i: 0
    }
  }
  attr {
    key: "seed2"
    value {
      i: 0
    }
  }
}
node {
  name: "device_dummy_7/Initializer/random_uniform/sub"
  op: "Sub"
  input: "device_dummy_7/Initializer/random_uniform/max"
  input: "device_dummy_7/Initializer/random_uniform/min"
  device: "/device:CPU:0"
  attr {
    key: "T"
    value {
      type: DT_FLOAT
    }
  }
  attr {
    key: "_class"
    value {
      list {
        s: "loc:@device_dummy_7"
      }
    }
  }
}
node {
  name: "device_dummy_7/Initializer/random_uniform/mul"
  op: "Mul"
  input: "device_dummy_7/Initializer/random_uniform/RandomUniform"
  input: "device_dummy_7/Initializer/random_uniform/sub"
  device: "/device:CPU:0"
  attr {
    key: "T"
    value {
      type: DT_FLOAT
    }
  }
  attr {
    key: "_class"
    value {
      list {
        s: "loc:@device_dummy_7"
      }
    }
  }
}
node {
  name: "device_dummy_7/Initializer/random_uniform"
  op: "Add"
  input: "device_dummy_7/Initializer/random_uniform/mul"
  input: "device_dummy_7/Initializer/random_uniform/min"
  device: "/device:CPU:0"
  attr {
    key: "T"
    value {
      type: DT_FLOAT
    }
  }
  attr {
    key: "_class"
    value {
      list {
        s: "loc:@device_dummy_7"
      }
    }
  }
}
node {
  name: "device_dummy_7"
  op: "VariableV2"
  device: "/device:CPU:0"
  attr {
    key: "_class"
    value {
      list {
        s: "loc:@device_dummy_7"
      }
    }
  }
  attr {
    key: "container"
    value {
      s: ""
    }
  }
  attr {
    key: "dtype"
    value {
      type: DT_FLOAT
    }
  }
  attr {
    key: "shape"
    value {
      shape {
        dim {
        }
      }
    }
  }
  attr {
    key: "shared_name"
    value {
      s: ""
    }
  }
}
node {
  name: "device_dummy_7/Assign"
  op: "Assign"
  input: "device_dummy_7"
  input: "device_dummy_7/Initializer/random_uniform"
  device: "/device:CPU:0"
  attr {
    key: "T"
    value {
      type: DT_FLOAT
    }
  }
  attr {
    key: "_class"
    value {
      list {
        s: "loc:@device_dummy_7"
      }
    }
  }
  attr {
    key: "use_locking"
    value {
      b: true
    }
  }
  attr {
    key: "validate_shape"
    value {
      b: true
    }
  }
}
node {
  name: "device_dummy_7/read"
  op: "Identity"
  input: "device_dummy_7"
  device: "/device:CPU:0"
  attr {
    key: "T"
    value {
      type: DT_FLOAT
    }
  }
  attr {
    key: "_class"
    value {
      list {
        s: "loc:@device_dummy_7"
      }
    }
  }
}
node {
  name: "device_dummy_8/Initializer/random_uniform/shape"
  op: "Const"
  device: "/device:CPU:0"
  attr {
    key: "_class"
    value {
      list {
        s: "loc:@device_dummy_8"
      }
    }
  }
  attr {
    key: "dtype"
    value {
      type: DT_INT32
    }
  }
  attr {
    key: "value"
    value {
      tensor {
        dtype: DT_INT32
        tensor_shape {
          dim {
            size: 1
          }
        }
        int_val: 0
      }
    }
  }
}
node {
  name: "device_dummy_8/Initializer/random_uniform/min"
  op: "Const"
  device: "/device:CPU:0"
  attr {
    key: "_class"
    value {
      list {
        s: "loc:@device_dummy_8"
      }
    }
  }
  attr {
    key: "dtype"
    value {
      type: DT_FLOAT
    }
  }
  attr {
    key: "value"
    value {
      tensor {
        dtype: DT_FLOAT
        tensor_shape {
        }
        float_val: -1.7320508
      }
    }
  }
}
node {
  name: "device_dummy_8/Initializer/random_uniform/max"
  op: "Const"
  device: "/device:CPU:0"
  attr {
    key: "_class"
    value {
      list {
        s: "loc:@device_dummy_8"
      }
    }
  }
  attr {
    key: "dtype"
    value {
      type: DT_FLOAT
    }
  }
  attr {
    key: "value"
    value {
      tensor {
        dtype: DT_FLOAT
        tensor_shape {
        }
        float_val: 1.7320508
      }
    }
  }
}
node {
  name: "device_dummy_8/Initializer/random_uniform/RandomUniform"
  op: "RandomUniform"
  input: "device_dummy_8/Initializer/random_uniform/shape"
  device: "/device:CPU:0"
  attr {
    key: "T"
    value {
      type: DT_INT32
    }
  }
  attr {
    key: "_class"
    value {
      list {
        s: "loc:@device_dummy_8"
      }
    }
  }
  attr {
    key: "dtype"
    value {
      type: DT_FLOAT
    }
  }
  attr {
    key: "seed"
    value {
      i: 0
    }
  }
  attr {
    key: "seed2"
    value {
      i: 0
    }
  }
}
node {
  name: "device_dummy_8/Initializer/random_uniform/sub"
  op: "Sub"
  input: "device_dummy_8/Initializer/random_uniform/max"
  input: "device_dummy_8/Initializer/random_uniform/min"
  device: "/device:CPU:0"
  attr {
    key: "T"
    value {
      type: DT_FLOAT
    }
  }
  attr {
    key: "_class"
    value {
      list {
        s: "loc:@device_dummy_8"
      }
    }
  }
}
node {
  name: "device_dummy_8/Initializer/random_uniform/mul"
  op: "Mul"
  input: "device_dummy_8/Initializer/random_uniform/RandomUniform"
  input: "device_dummy_8/Initializer/random_uniform/sub"
  device: "/device:CPU:0"
  attr {
    key: "T"
    value {
      type: DT_FLOAT
    }
  }
  attr {
    key: "_class"
    value {
      list {
        s: "loc:@device_dummy_8"
      }
    }
  }
}
node {
  name: "device_dummy_8/Initializer/random_uniform"
  op: "Add"
  input: "device_dummy_8/Initializer/random_uniform/mul"
  input: "device_dummy_8/Initializer/random_uniform/min"
  device: "/device:CPU:0"
  attr {
    key: "T"
    value {
      type: DT_FLOAT
    }
  }
  attr {
    key: "_class"
    value {
      list {
        s: "loc:@device_dummy_8"
      }
    }
  }
}
node {
  name: "device_dummy_8"
  op: "VariableV2"
  device: "/device:CPU:0"
  attr {
    key: "_class"
    value {
      list {
        s: "loc:@device_dummy_8"
      }
    }
  }
  attr {
    key: "container"
    value {
      s: ""
    }
  }
  attr {
    key: "dtype"
    value {
      type: DT_FLOAT
    }
  }
  attr {
    key: "shape"
    value {
      shape {
        dim {
        }
      }
    }
  }
  attr {
    key: "shared_name"
    value {
      s: ""
    }
  }
}
node {
  name: "device_dummy_8/Assign"
  op: "Assign"
  input: "device_dummy_8"
  input: "device_dummy_8/Initializer/random_uniform"
  device: "/device:CPU:0"
  attr {
    key: "T"
    value {
      type: DT_FLOAT
    }
  }
  attr {
    key: "_class"
    value {
      list {
        s: "loc:@device_dummy_8"
      }
    }
  }
  attr {
    key: "use_locking"
    value {
      b: true
    }
  }
  attr {
    key: "validate_shape"
    value {
      b: true
    }
  }
}
node {
  name: "device_dummy_8/read"
  op: "Identity"
  input: "device_dummy_8"
  device: "/device:CPU:0"
  attr {
    key: "T"
    value {
      type: DT_FLOAT
    }
  }
  attr {
    key: "_class"
    value {
      list {
        s: "loc:@device_dummy_8"
      }
    }
  }
}
node {
  name: "device_dummy_9/Initializer/random_uniform/shape"
  op: "Const"
  device: "/device:CPU:0"
  attr {
    key: "_class"
    value {
      list {
        s: "loc:@device_dummy_9"
      }
    }
  }
  attr {
    key: "dtype"
    value {
      type: DT_INT32
    }
  }
  attr {
    key: "value"
    value {
      tensor {
        dtype: DT_INT32
        tensor_shape {
          dim {
            size: 1
          }
        }
        int_val: 0
      }
    }
  }
}
node {
  name: "device_dummy_9/Initializer/random_uniform/min"
  op: "Const"
  device: "/device:CPU:0"
  attr {
    key: "_class"
    value {
      list {
        s: "loc:@device_dummy_9"
      }
    }
  }
  attr {
    key: "dtype"
    value {
      type: DT_FLOAT
    }
  }
  attr {
    key: "value"
    value {
      tensor {
        dtype: DT_FLOAT
        tensor_shape {
        }
        float_val: -1.7320508
      }
    }
  }
}
node {
  name: "device_dummy_9/Initializer/random_uniform/max"
  op: "Const"
  device: "/device:CPU:0"
  attr {
    key: "_class"
    value {
      list {
        s: "loc:@device_dummy_9"
      }
    }
  }
  attr {
    key: "dtype"
    value {
      type: DT_FLOAT
    }
  }
  attr {
    key: "value"
    value {
      tensor {
        dtype: DT_FLOAT
        tensor_shape {
        }
        float_val: 1.7320508
      }
    }
  }
}
node {
  name: "device_dummy_9/Initializer/random_uniform/RandomUniform"
  op: "RandomUniform"
  input: "device_dummy_9/Initializer/random_uniform/shape"
  device: "/device:CPU:0"
  attr {
    key: "T"
    value {
      type: DT_INT32
    }
  }
  attr {
    key: "_class"
    value {
      list {
        s: "loc:@device_dummy_9"
      }
    }
  }
  attr {
    key: "dtype"
    value {
      type: DT_FLOAT
    }
  }
  attr {
    key: "seed"
    value {
      i: 0
    }
  }
  attr {
    key: "seed2"
    value {
      i: 0
    }
  }
}
node {
  name: "device_dummy_9/Initializer/random_uniform/sub"
  op: "Sub"
  input: "device_dummy_9/Initializer/random_uniform/max"
  input: "device_dummy_9/Initializer/random_uniform/min"
  device: "/device:CPU:0"
  attr {
    key: "T"
    value {
      type: DT_FLOAT
    }
  }
  attr {
    key: "_class"
    value {
      list {
        s: "loc:@device_dummy_9"
      }
    }
  }
}
node {
  name: "device_dummy_9/Initializer/random_uniform/mul"
  op: "Mul"
  input: "device_dummy_9/Initializer/random_uniform/RandomUniform"
  input: "device_dummy_9/Initializer/random_uniform/sub"
  device: "/device:CPU:0"
  attr {
    key: "T"
    value {
      type: DT_FLOAT
    }
  }
  attr {
    key: "_class"
    value {
      list {
        s: "loc:@device_dummy_9"
      }
    }
  }
}
node {
  name: "device_dummy_9/Initializer/random_uniform"
  op: "Add"
  input: "device_dummy_9/Initializer/random_uniform/mul"
  input: "device_dummy_9/Initializer/random_uniform/min"
  device: "/device:CPU:0"
  attr {
    key: "T"
    value {
      type: DT_FLOAT
    }
  }
  attr {
    key: "_class"
    value {
      list {
        s: "loc:@device_dummy_9"
      }
    }
  }
}
node {
  name: "device_dummy_9"
  op: "VariableV2"
  device: "/device:CPU:0"
  attr {
    key: "_class"
    value {
      list {
        s: "loc:@device_dummy_9"
      }
    }
  }
  attr {
    key: "container"
    value {
      s: ""
    }
  }
  attr {
    key: "dtype"
    value {
      type: DT_FLOAT
    }
  }
  attr {
    key: "shape"
    value {
      shape {
        dim {
        }
      }
    }
  }
  attr {
    key: "shared_name"
    value {
      s: ""
    }
  }
}
node {
  name: "device_dummy_9/Assign"
  op: "Assign"
  input: "device_dummy_9"
  input: "device_dummy_9/Initializer/random_uniform"
  device: "/device:CPU:0"
  attr {
    key: "T"
    value {
      type: DT_FLOAT
    }
  }
  attr {
    key: "_class"
    value {
      list {
        s: "loc:@device_dummy_9"
      }
    }
  }
  attr {
    key: "use_locking"
    value {
      b: true
    }
  }
  attr {
    key: "validate_shape"
    value {
      b: true
    }
  }
}
node {
  name: "device_dummy_9/read"
  op: "Identity"
  input: "device_dummy_9"
  device: "/device:CPU:0"
  attr {
    key: "T"
    value {
      type: DT_FLOAT
    }
  }
  attr {
    key: "_class"
    value {
      list {
        s: "loc:@device_dummy_9"
      }
    }
  }
}
node {
  name: "stats-0"
  op: "FertileStatsResourceHandleOp"
  device: "/device:CPU:0"
  attr {
    key: "container"
    value {
      s: ""
    }
  }
  attr {
    key: "shared_name"
    value {
      s: "stats-0/"
    }
  }
}
node {
  name: "stats-0/CreateFertileStatsVariable/stats_config"
  op: "Const"
  device: "/device:CPU:0"
  attr {
    key: "dtype"
    value {
      type: DT_STRING
    }
  }
  attr {
    key: "value"
    value {
      tensor {
        dtype: DT_STRING
        tensor_shape {
        }
        string_val: ""
      }
    }
  }
}
node {
  name: "stats-0/CreateFertileStatsVariable"
  op: "CreateFertileStatsVariable"
  input: "stats-0"
  input: "stats-0/CreateFertileStatsVariable/stats_config"
  device: "/device:CPU:0"
  attr {
    key: "params"
    value {
      s: "\"\007\n\005\r\000\000\000\000*\007\n\005\r\000\000\000\0000\n8\350\007`\005j\005\r\000\000 Ar\005\r\000\000zCz\005\r\244p}?\250\001\r"
    }
  }
}
node {
  name: "stats-0/FertileStatsIsInitializedOp"
  op: "FertileStatsIsInitializedOp"
  input: "stats-0"
  device: "/device:CPU:0"
}
node {
  name: "stats-0/FertileStatsSerialize"
  op: "FertileStatsSerialize"
  input: "stats-0"
  device: "/device:CPU:0"
  attr {
    key: "params"
    value {
      s: "\"\007\n\005\r\000\000\000\000*\007\n\005\r\000\000\000\0000\n8\350\007`\005j\005\r\000\000 Ar\005\r\000\000zCz\005\r\244p}?\250\001\r"
    }
  }
}
node {
  name: "tree-0"
  op: "DecisionTreeResourceHandleOp"
  device: "/device:CPU:0"
  attr {
    key: "container"
    value {
      s: ""
    }
  }
  attr {
    key: "shared_name"
    value {
      s: "tree-0/"
    }
  }
}
node {
  name: "tree-0/CreateTreeVariable/tree_config"
  op: "Const"
  device: "/device:CPU:0"
  attr {
    key: "dtype"
    value {
      type: DT_STRING
    }
  }
  attr {
    key: "value"
    value {
      tensor {
        dtype: DT_STRING
        tensor_shape {
        }
        string_val: ""
      }
    }
  }
}
node {
  name: "tree-0/CreateTreeVariable"
  op: "CreateTreeVariable"
  input: "tree-0"
  input: "tree-0/CreateTreeVariable/tree_config"
  device: "/device:CPU:0"
  attr {
    key: "params"
    value {
      s: "\"\007\n\005\r\000\000\000\000*\007\n\005\r\000\000\000\0000\n8\350\007`\005j\005\r\000\000 Ar\005\r\000\000zCz\005\r\244p}?\250\001\r"
    }
  }
}
node {
  name: "tree-0/TreeIsInitializedOp"
  op: "TreeIsInitializedOp"
  input: "tree-0"
  device: "/device:CPU:0"
}
node {
  name: "tree-0/TreeSerialize"
  op: "TreeSerialize"
  input: "tree-0"
  device: "/device:CPU:0"
}
node {
  name: "stats-1"
  op: "FertileStatsResourceHandleOp"
  device: "/device:CPU:0"
  attr {
    key: "container"
    value {
      s: ""
    }
  }
  attr {
    key: "shared_name"
    value {
      s: "stats-1/"
    }
  }
}
node {
  name: "stats-1/CreateFertileStatsVariable/stats_config"
  op: "Const"
  device: "/device:CPU:0"
  attr {
    key: "dtype"
    value {
      type: DT_STRING
    }
  }
  attr {
    key: "value"
    value {
      tensor {
        dtype: DT_STRING
        tensor_shape {
        }
        string_val: ""
      }
    }
  }
}
node {
  name: "stats-1/CreateFertileStatsVariable"
  op: "CreateFertileStatsVariable"
  input: "stats-1"
  input: "stats-1/CreateFertileStatsVariable/stats_config"
  device: "/device:CPU:0"
  attr {
    key: "params"
    value {
      s: "\"\007\n\005\r\000\000\000\000*\007\n\005\r\000\000\000\0000\n8\350\007`\005j\005\r\000\000 Ar\005\r\000\000zCz\005\r\244p}?\250\001\r"
    }
  }
}
node {
  name: "stats-1/FertileStatsIsInitializedOp"
  op: "FertileStatsIsInitializedOp"
  input: "stats-1"
  device: "/device:CPU:0"
}
node {
  name: "stats-1/FertileStatsSerialize"
  op: "FertileStatsSerialize"
  input: "stats-1"
  device: "/device:CPU:0"
  attr {
    key: "params"
    value {
      s: "\"\007\n\005\r\000\000\000\000*\007\n\005\r\000\000\000\0000\n8\350\007`\005j\005\r\000\000 Ar\005\r\000\000zCz\005\r\244p}?\250\001\r"
    }
  }
}
node {
  name: "tree-1"
  op: "DecisionTreeResourceHandleOp"
  device: "/device:CPU:0"
  attr {
    key: "container"
    value {
      s: ""
    }
  }
  attr {
    key: "shared_name"
    value {
      s: "tree-1/"
    }
  }
}
node {
  name: "tree-1/CreateTreeVariable/tree_config"
  op: "Const"
  device: "/device:CPU:0"
  attr {
    key: "dtype"
    value {
      type: DT_STRING
    }
  }
  attr {
    key: "value"
    value {
      tensor {
        dtype: DT_STRING
        tensor_shape {
        }
        string_val: ""
      }
    }
  }
}
node {
  name: "tree-1/CreateTreeVariable"
  op: "CreateTreeVariable"
  input: "tree-1"
  input: "tree-1/CreateTreeVariable/tree_config"
  device: "/device:CPU:0"
  attr {
    key: "params"
    value {
      s: "\"\007\n\005\r\000\000\000\000*\007\n\005\r\000\000\000\0000\n8\350\007`\005j\005\r\000\000 Ar\005\r\000\000zCz\005\r\244p}?\250\001\r"
    }
  }
}
node {
  name: "tree-1/TreeIsInitializedOp"
  op: "TreeIsInitializedOp"
  input: "tree-1"
  device: "/device:CPU:0"
}
node {
  name: "tree-1/TreeSerialize"
  op: "TreeSerialize"
  input: "tree-1"
  device: "/device:CPU:0"
}
node {
  name: "stats-2"
  op: "FertileStatsResourceHandleOp"
  device: "/device:CPU:0"
  attr {
    key: "container"
    value {
      s: ""
    }
  }
  attr {
    key: "shared_name"
    value {
      s: "stats-2/"
    }
  }
}
node {
  name: "stats-2/CreateFertileStatsVariable/stats_config"
  op: "Const"
  device: "/device:CPU:0"
  attr {
    key: "dtype"
    value {
      type: DT_STRING
    }
  }
  attr {
    key: "value"
    value {
      tensor {
        dtype: DT_STRING
        tensor_shape {
        }
        string_val: ""
      }
    }
  }
}
node {
  name: "stats-2/CreateFertileStatsVariable"
  op: "CreateFertileStatsVariable"
  input: "stats-2"
  input: "stats-2/CreateFertileStatsVariable/stats_config"
  device: "/device:CPU:0"
  attr {
    key: "params"
    value {
      s: "\"\007\n\005\r\000\000\000\000*\007\n\005\r\000\000\000\0000\n8\350\007`\005j\005\r\000\000 Ar\005\r\000\000zCz\005\r\244p}?\250\001\r"
    }
  }
}
node {
  name: "stats-2/FertileStatsIsInitializedOp"
  op: "FertileStatsIsInitializedOp"
  input: "stats-2"
  device: "/device:CPU:0"
}
node {
  name: "stats-2/FertileStatsSerialize"
  op: "FertileStatsSerialize"
  input: "stats-2"
  device: "/device:CPU:0"
  attr {
    key: "params"
    value {
      s: "\"\007\n\005\r\000\000\000\000*\007\n\005\r\000\000\000\0000\n8\350\007`\005j\005\r\000\000 Ar\005\r\000\000zCz\005\r\244p}?\250\001\r"
    }
  }
}
node {
  name: "tree-2"
  op: "DecisionTreeResourceHandleOp"
  device: "/device:CPU:0"
  attr {
    key: "container"
    value {
      s: ""
    }
  }
  attr {
    key: "shared_name"
    value {
      s: "tree-2/"
    }
  }
}
node {
  name: "tree-2/CreateTreeVariable/tree_config"
  op: "Const"
  device: "/device:CPU:0"
  attr {
    key: "dtype"
    value {
      type: DT_STRING
    }
  }
  attr {
    key: "value"
    value {
      tensor {
        dtype: DT_STRING
        tensor_shape {
        }
        string_val: ""
      }
    }
  }
}
node {
  name: "tree-2/CreateTreeVariable"
  op: "CreateTreeVariable"
  input: "tree-2"
  input: "tree-2/CreateTreeVariable/tree_config"
  device: "/device:CPU:0"
  attr {
    key: "params"
    value {
      s: "\"\007\n\005\r\000\000\000\000*\007\n\005\r\000\000\000\0000\n8\350\007`\005j\005\r\000\000 Ar\005\r\000\000zCz\005\r\244p}?\250\001\r"
    }
  }
}
node {
  name: "tree-2/TreeIsInitializedOp"
  op: "TreeIsInitializedOp"
  input: "tree-2"
  device: "/device:CPU:0"
}
node {
  name: "tree-2/TreeSerialize"
  op: "TreeSerialize"
  input: "tree-2"
  device: "/device:CPU:0"
}
node {
  name: "stats-3"
  op: "FertileStatsResourceHandleOp"
  device: "/device:CPU:0"
  attr {
    key: "container"
    value {
      s: ""
    }
  }
  attr {
    key: "shared_name"
    value {
      s: "stats-3/"
    }
  }
}
node {
  name: "stats-3/CreateFertileStatsVariable/stats_config"
  op: "Const"
  device: "/device:CPU:0"
  attr {
    key: "dtype"
    value {
      type: DT_STRING
    }
  }
  attr {
    key: "value"
    value {
      tensor {
        dtype: DT_STRING
        tensor_shape {
        }
        string_val: ""
      }
    }
  }
}
node {
  name: "stats-3/CreateFertileStatsVariable"
  op: "CreateFertileStatsVariable"
  input: "stats-3"
  input: "stats-3/CreateFertileStatsVariable/stats_config"
  device: "/device:CPU:0"
  attr {
    key: "params"
    value {
      s: "\"\007\n\005\r\000\000\000\000*\007\n\005\r\000\000\000\0000\n8\350\007`\005j\005\r\000\000 Ar\005\r\000\000zCz\005\r\244p}?\250\001\r"
    }
  }
}
node {
  name: "stats-3/FertileStatsIsInitializedOp"
  op: "FertileStatsIsInitializedOp"
  input: "stats-3"
  device: "/device:CPU:0"
}
node {
  name: "stats-3/FertileStatsSerialize"
  op: "FertileStatsSerialize"
  input: "stats-3"
  device: "/device:CPU:0"
  attr {
    key: "params"
    value {
      s: "\"\007\n\005\r\000\000\000\000*\007\n\005\r\000\000\000\0000\n8\350\007`\005j\005\r\000\000 Ar\005\r\000\000zCz\005\r\244p}?\250\001\r"
    }
  }
}
node {
  name: "tree-3"
  op: "DecisionTreeResourceHandleOp"
  device: "/device:CPU:0"
  attr {
    key: "container"
    value {
      s: ""
    }
  }
  attr {
    key: "shared_name"
    value {
      s: "tree-3/"
    }
  }
}
node {
  name: "tree-3/CreateTreeVariable/tree_config"
  op: "Const"
  device: "/device:CPU:0"
  attr {
    key: "dtype"
    value {
      type: DT_STRING
    }
  }
  attr {
    key: "value"
    value {
      tensor {
        dtype: DT_STRING
        tensor_shape {
        }
        string_val: ""
      }
    }
  }
}
node {
  name: "tree-3/CreateTreeVariable"
  op: "CreateTreeVariable"
  input: "tree-3"
  input: "tree-3/CreateTreeVariable/tree_config"
  device: "/device:CPU:0"
  attr {
    key: "params"
    value {
      s: "\"\007\n\005\r\000\000\000\000*\007\n\005\r\000\000\000\0000\n8\350\007`\005j\005\r\000\000 Ar\005\r\000\000zCz\005\r\244p}?\250\001\r"
    }
  }
}
node {
  name: "tree-3/TreeIsInitializedOp"
  op: "TreeIsInitializedOp"
  input: "tree-3"
  device: "/device:CPU:0"
}
node {
  name: "tree-3/TreeSerialize"
  op: "TreeSerialize"
  input: "tree-3"
  device: "/device:CPU:0"
}
node {
  name: "stats-4"
  op: "FertileStatsResourceHandleOp"
  device: "/device:CPU:0"
  attr {
    key: "container"
    value {
      s: ""
    }
  }
  attr {
    key: "shared_name"
    value {
      s: "stats-4/"
    }
  }
}
node {
  name: "stats-4/CreateFertileStatsVariable/stats_config"
  op: "Const"
  device: "/device:CPU:0"
  attr {
    key: "dtype"
    value {
      type: DT_STRING
    }
  }
  attr {
    key: "value"
    value {
      tensor {
        dtype: DT_STRING
        tensor_shape {
        }
        string_val: ""
      }
    }
  }
}
node {
  name: "stats-4/CreateFertileStatsVariable"
  op: "CreateFertileStatsVariable"
  input: "stats-4"
  input: "stats-4/CreateFertileStatsVariable/stats_config"
  device: "/device:CPU:0"
  attr {
    key: "params"
    value {
      s: "\"\007\n\005\r\000\000\000\000*\007\n\005\r\000\000\000\0000\n8\350\007`\005j\005\r\000\000 Ar\005\r\000\000zCz\005\r\244p}?\250\001\r"
    }
  }
}
node {
  name: "stats-4/FertileStatsIsInitializedOp"
  op: "FertileStatsIsInitializedOp"
  input: "stats-4"
  device: "/device:CPU:0"
}
node {
  name: "stats-4/FertileStatsSerialize"
  op: "FertileStatsSerialize"
  input: "stats-4"
  device: "/device:CPU:0"
  attr {
    key: "params"
    value {
      s: "\"\007\n\005\r\000\000\000\000*\007\n\005\r\000\000\000\0000\n8\350\007`\005j\005\r\000\000 Ar\005\r\000\000zCz\005\r\244p}?\250\001\r"
    }
  }
}
node {
  name: "tree-4"
  op: "DecisionTreeResourceHandleOp"
  device: "/device:CPU:0"
  attr {
    key: "container"
    value {
      s: ""
    }
  }
  attr {
    key: "shared_name"
    value {
      s: "tree-4/"
    }
  }
}
node {
  name: "tree-4/CreateTreeVariable/tree_config"
  op: "Const"
  device: "/device:CPU:0"
  attr {
    key: "dtype"
    value {
      type: DT_STRING
    }
  }
  attr {
    key: "value"
    value {
      tensor {
        dtype: DT_STRING
        tensor_shape {
        }
        string_val: ""
      }
    }
  }
}
node {
  name: "tree-4/CreateTreeVariable"
  op: "CreateTreeVariable"
  input: "tree-4"
  input: "tree-4/CreateTreeVariable/tree_config"
  device: "/device:CPU:0"
  attr {
    key: "params"
    value {
      s: "\"\007\n\005\r\000\000\000\000*\007\n\005\r\000\000\000\0000\n8\350\007`\005j\005\r\000\000 Ar\005\r\000\000zCz\005\r\244p}?\250\001\r"
    }
  }
}
node {
  name: "tree-4/TreeIsInitializedOp"
  op: "TreeIsInitializedOp"
  input: "tree-4"
  device: "/device:CPU:0"
}
node {
  name: "tree-4/TreeSerialize"
  op: "TreeSerialize"
  input: "tree-4"
  device: "/device:CPU:0"
}
node {
  name: "stats-5"
  op: "FertileStatsResourceHandleOp"
  device: "/device:CPU:0"
  attr {
    key: "container"
    value {
      s: ""
    }
  }
  attr {
    key: "shared_name"
    value {
      s: "stats-5/"
    }
  }
}
node {
  name: "stats-5/CreateFertileStatsVariable/stats_config"
  op: "Const"
  device: "/device:CPU:0"
  attr {
    key: "dtype"
    value {
      type: DT_STRING
    }
  }
  attr {
    key: "value"
    value {
      tensor {
        dtype: DT_STRING
        tensor_shape {
        }
        string_val: ""
      }
    }
  }
}
node {
  name: "stats-5/CreateFertileStatsVariable"
  op: "CreateFertileStatsVariable"
  input: "stats-5"
  input: "stats-5/CreateFertileStatsVariable/stats_config"
  device: "/device:CPU:0"
  attr {
    key: "params"
    value {
      s: "\"\007\n\005\r\000\000\000\000*\007\n\005\r\000\000\000\0000\n8\350\007`\005j\005\r\000\000 Ar\005\r\000\000zCz\005\r\244p}?\250\001\r"
    }
  }
}
node {
  name: "stats-5/FertileStatsIsInitializedOp"
  op: "FertileStatsIsInitializedOp"
  input: "stats-5"
  device: "/device:CPU:0"
}
node {
  name: "stats-5/FertileStatsSerialize"
  op: "FertileStatsSerialize"
  input: "stats-5"
  device: "/device:CPU:0"
  attr {
    key: "params"
    value {
      s: "\"\007\n\005\r\000\000\000\000*\007\n\005\r\000\000\000\0000\n8\350\007`\005j\005\r\000\000 Ar\005\r\000\000zCz\005\r\244p}?\250\001\r"
    }
  }
}
node {
  name: "tree-5"
  op: "DecisionTreeResourceHandleOp"
  device: "/device:CPU:0"
  attr {
    key: "container"
    value {
      s: ""
    }
  }
  attr {
    key: "shared_name"
    value {
      s: "tree-5/"
    }
  }
}
node {
  name: "tree-5/CreateTreeVariable/tree_config"
  op: "Const"
  device: "/device:CPU:0"
  attr {
    key: "dtype"
    value {
      type: DT_STRING
    }
  }
  attr {
    key: "value"
    value {
      tensor {
        dtype: DT_STRING
        tensor_shape {
        }
        string_val: ""
      }
    }
  }
}
node {
  name: "tree-5/CreateTreeVariable"
  op: "CreateTreeVariable"
  input: "tree-5"
  input: "tree-5/CreateTreeVariable/tree_config"
  device: "/device:CPU:0"
  attr {
    key: "params"
    value {
      s: "\"\007\n\005\r\000\000\000\000*\007\n\005\r\000\000\000\0000\n8\350\007`\005j\005\r\000\000 Ar\005\r\000\000zCz\005\r\244p}?\250\001\r"
    }
  }
}
node {
  name: "tree-5/TreeIsInitializedOp"
  op: "TreeIsInitializedOp"
  input: "tree-5"
  device: "/device:CPU:0"
}
node {
  name: "tree-5/TreeSerialize"
  op: "TreeSerialize"
  input: "tree-5"
  device: "/device:CPU:0"
}
node {
  name: "stats-6"
  op: "FertileStatsResourceHandleOp"
  device: "/device:CPU:0"
  attr {
    key: "container"
    value {
      s: ""
    }
  }
  attr {
    key: "shared_name"
    value {
      s: "stats-6/"
    }
  }
}
node {
  name: "stats-6/CreateFertileStatsVariable/stats_config"
  op: "Const"
  device: "/device:CPU:0"
  attr {
    key: "dtype"
    value {
      type: DT_STRING
    }
  }
  attr {
    key: "value"
    value {
      tensor {
        dtype: DT_STRING
        tensor_shape {
        }
        string_val: ""
      }
    }
  }
}
node {
  name: "stats-6/CreateFertileStatsVariable"
  op: "CreateFertileStatsVariable"
  input: "stats-6"
  input: "stats-6/CreateFertileStatsVariable/stats_config"
  device: "/device:CPU:0"
  attr {
    key: "params"
    value {
      s: "\"\007\n\005\r\000\000\000\000*\007\n\005\r\000\000\000\0000\n8\350\007`\005j\005\r\000\000 Ar\005\r\000\000zCz\005\r\244p}?\250\001\r"
    }
  }
}
node {
  name: "stats-6/FertileStatsIsInitializedOp"
  op: "FertileStatsIsInitializedOp"
  input: "stats-6"
  device: "/device:CPU:0"
}
node {
  name: "stats-6/FertileStatsSerialize"
  op: "FertileStatsSerialize"
  input: "stats-6"
  device: "/device:CPU:0"
  attr {
    key: "params"
    value {
      s: "\"\007\n\005\r\000\000\000\000*\007\n\005\r\000\000\000\0000\n8\350\007`\005j\005\r\000\000 Ar\005\r\000\000zCz\005\r\244p}?\250\001\r"
    }
  }
}
node {
  name: "tree-6"
  op: "DecisionTreeResourceHandleOp"
  device: "/device:CPU:0"
  attr {
    key: "container"
    value {
      s: ""
    }
  }
  attr {
    key: "shared_name"
    value {
      s: "tree-6/"
    }
  }
}
node {
  name: "tree-6/CreateTreeVariable/tree_config"
  op: "Const"
  device: "/device:CPU:0"
  attr {
    key: "dtype"
    value {
      type: DT_STRING
    }
  }
  attr {
    key: "value"
    value {
      tensor {
        dtype: DT_STRING
        tensor_shape {
        }
        string_val: ""
      }
    }
  }
}
node {
  name: "tree-6/CreateTreeVariable"
  op: "CreateTreeVariable"
  input: "tree-6"
  input: "tree-6/CreateTreeVariable/tree_config"
  device: "/device:CPU:0"
  attr {
    key: "params"
    value {
      s: "\"\007\n\005\r\000\000\000\000*\007\n\005\r\000\000\000\0000\n8\350\007`\005j\005\r\000\000 Ar\005\r\000\000zCz\005\r\244p}?\250\001\r"
    }
  }
}
node {
  name: "tree-6/TreeIsInitializedOp"
  op: "TreeIsInitializedOp"
  input: "tree-6"
  device: "/device:CPU:0"
}
node {
  name: "tree-6/TreeSerialize"
  op: "TreeSerialize"
  input: "tree-6"
  device: "/device:CPU:0"
}
node {
  name: "stats-7"
  op: "FertileStatsResourceHandleOp"
  device: "/device:CPU:0"
  attr {
    key: "container"
    value {
      s: ""
    }
  }
  attr {
    key: "shared_name"
    value {
      s: "stats-7/"
    }
  }
}
node {
  name: "stats-7/CreateFertileStatsVariable/stats_config"
  op: "Const"
  device: "/device:CPU:0"
  attr {
    key: "dtype"
    value {
      type: DT_STRING
    }
  }
  attr {
    key: "value"
    value {
      tensor {
        dtype: DT_STRING
        tensor_shape {
        }
        string_val: ""
      }
    }
  }
}
node {
  name: "stats-7/CreateFertileStatsVariable"
  op: "CreateFertileStatsVariable"
  input: "stats-7"
  input: "stats-7/CreateFertileStatsVariable/stats_config"
  device: "/device:CPU:0"
  attr {
    key: "params"
    value {
      s: "\"\007\n\005\r\000\000\000\000*\007\n\005\r\000\000\000\0000\n8\350\007`\005j\005\r\000\000 Ar\005\r\000\000zCz\005\r\244p}?\250\001\r"
    }
  }
}
node {
  name: "stats-7/FertileStatsIsInitializedOp"
  op: "FertileStatsIsInitializedOp"
  input: "stats-7"
  device: "/device:CPU:0"
}
node {
  name: "stats-7/FertileStatsSerialize"
  op: "FertileStatsSerialize"
  input: "stats-7"
  device: "/device:CPU:0"
  attr {
    key: "params"
    value {
      s: "\"\007\n\005\r\000\000\000\000*\007\n\005\r\000\000\000\0000\n8\350\007`\005j\005\r\000\000 Ar\005\r\000\000zCz\005\r\244p}?\250\001\r"
    }
  }
}
node {
  name: "tree-7"
  op: "DecisionTreeResourceHandleOp"
  device: "/device:CPU:0"
  attr {
    key: "container"
    value {
      s: ""
    }
  }
  attr {
    key: "shared_name"
    value {
      s: "tree-7/"
    }
  }
}
node {
  name: "tree-7/CreateTreeVariable/tree_config"
  op: "Const"
  device: "/device:CPU:0"
  attr {
    key: "dtype"
    value {
      type: DT_STRING
    }
  }
  attr {
    key: "value"
    value {
      tensor {
        dtype: DT_STRING
        tensor_shape {
        }
        string_val: ""
      }
    }
  }
}
node {
  name: "tree-7/CreateTreeVariable"
  op: "CreateTreeVariable"
  input: "tree-7"
  input: "tree-7/CreateTreeVariable/tree_config"
  device: "/device:CPU:0"
  attr {
    key: "params"
    value {
      s: "\"\007\n\005\r\000\000\000\000*\007\n\005\r\000\000\000\0000\n8\350\007`\005j\005\r\000\000 Ar\005\r\000\000zCz\005\r\244p}?\250\001\r"
    }
  }
}
node {
  name: "tree-7/TreeIsInitializedOp"
  op: "TreeIsInitializedOp"
  input: "tree-7"
  device: "/device:CPU:0"
}
node {
  name: "tree-7/TreeSerialize"
  op: "TreeSerialize"
  input: "tree-7"
  device: "/device:CPU:0"
}
node {
  name: "stats-8"
  op: "FertileStatsResourceHandleOp"
  device: "/device:CPU:0"
  attr {
    key: "container"
    value {
      s: ""
    }
  }
  attr {
    key: "shared_name"
    value {
      s: "stats-8/"
    }
  }
}
node {
  name: "stats-8/CreateFertileStatsVariable/stats_config"
  op: "Const"
  device: "/device:CPU:0"
  attr {
    key: "dtype"
    value {
      type: DT_STRING
    }
  }
  attr {
    key: "value"
    value {
      tensor {
        dtype: DT_STRING
        tensor_shape {
        }
        string_val: ""
      }
    }
  }
}
node {
  name: "stats-8/CreateFertileStatsVariable"
  op: "CreateFertileStatsVariable"
  input: "stats-8"
  input: "stats-8/CreateFertileStatsVariable/stats_config"
  device: "/device:CPU:0"
  attr {
    key: "params"
    value {
      s: "\"\007\n\005\r\000\000\000\000*\007\n\005\r\000\000\000\0000\n8\350\007`\005j\005\r\000\000 Ar\005\r\000\000zCz\005\r\244p}?\250\001\r"
    }
  }
}
node {
  name: "stats-8/FertileStatsIsInitializedOp"
  op: "FertileStatsIsInitializedOp"
  input: "stats-8"
  device: "/device:CPU:0"
}
node {
  name: "stats-8/FertileStatsSerialize"
  op: "FertileStatsSerialize"
  input: "stats-8"
  device: "/device:CPU:0"
  attr {
    key: "params"
    value {
      s: "\"\007\n\005\r\000\000\000\000*\007\n\005\r\000\000\000\0000\n8\350\007`\005j\005\r\000\000 Ar\005\r\000\000zCz\005\r\244p}?\250\001\r"
    }
  }
}
node {
  name: "tree-8"
  op: "DecisionTreeResourceHandleOp"
  device: "/device:CPU:0"
  attr {
    key: "container"
    value {
      s: ""
    }
  }
  attr {
    key: "shared_name"
    value {
      s: "tree-8/"
    }
  }
}
node {
  name: "tree-8/CreateTreeVariable/tree_config"
  op: "Const"
  device: "/device:CPU:0"
  attr {
    key: "dtype"
    value {
      type: DT_STRING
    }
  }
  attr {
    key: "value"
    value {
      tensor {
        dtype: DT_STRING
        tensor_shape {
        }
        string_val: ""
      }
    }
  }
}
node {
  name: "tree-8/CreateTreeVariable"
  op: "CreateTreeVariable"
  input: "tree-8"
  input: "tree-8/CreateTreeVariable/tree_config"
  device: "/device:CPU:0"
  attr {
    key: "params"
    value {
      s: "\"\007\n\005\r\000\000\000\000*\007\n\005\r\000\000\000\0000\n8\350\007`\005j\005\r\000\000 Ar\005\r\000\000zCz\005\r\244p}?\250\001\r"
    }
  }
}
node {
  name: "tree-8/TreeIsInitializedOp"
  op: "TreeIsInitializedOp"
  input: "tree-8"
  device: "/device:CPU:0"
}
node {
  name: "tree-8/TreeSerialize"
  op: "TreeSerialize"
  input: "tree-8"
  device: "/device:CPU:0"
}
node {
  name: "stats-9"
  op: "FertileStatsResourceHandleOp"
  device: "/device:CPU:0"
  attr {
    key: "container"
    value {
      s: ""
    }
  }
  attr {
    key: "shared_name"
    value {
      s: "stats-9/"
    }
  }
}
node {
  name: "stats-9/CreateFertileStatsVariable/stats_config"
  op: "Const"
  device: "/device:CPU:0"
  attr {
    key: "dtype"
    value {
      type: DT_STRING
    }
  }
  attr {
    key: "value"
    value {
      tensor {
        dtype: DT_STRING
        tensor_shape {
        }
        string_val: ""
      }
    }
  }
}
node {
  name: "stats-9/CreateFertileStatsVariable"
  op: "CreateFertileStatsVariable"
  input: "stats-9"
  input: "stats-9/CreateFertileStatsVariable/stats_config"
  device: "/device:CPU:0"
  attr {
    key: "params"
    value {
      s: "\"\007\n\005\r\000\000\000\000*\007\n\005\r\000\000\000\0000\n8\350\007`\005j\005\r\000\000 Ar\005\r\000\000zCz\005\r\244p}?\250\001\r"
    }
  }
}
node {
  name: "stats-9/FertileStatsIsInitializedOp"
  op: "FertileStatsIsInitializedOp"
  input: "stats-9"
  device: "/device:CPU:0"
}
node {
  name: "stats-9/FertileStatsSerialize"
  op: "FertileStatsSerialize"
  input: "stats-9"
  device: "/device:CPU:0"
  attr {
    key: "params"
    value {
      s: "\"\007\n\005\r\000\000\000\000*\007\n\005\r\000\000\000\0000\n8\350\007`\005j\005\r\000\000 Ar\005\r\000\000zCz\005\r\244p}?\250\001\r"
    }
  }
}
node {
  name: "tree-9"
  op: "DecisionTreeResourceHandleOp"
  device: "/device:CPU:0"
  attr {
    key: "container"
    value {
      s: ""
    }
  }
  attr {
    key: "shared_name"
    value {
      s: "tree-9/"
    }
  }
}
node {
  name: "tree-9/CreateTreeVariable/tree_config"
  op: "Const"
  device: "/device:CPU:0"
  attr {
    key: "dtype"
    value {
      type: DT_STRING
    }
  }
  attr {
    key: "value"
    value {
      tensor {
        dtype: DT_STRING
        tensor_shape {
        }
        string_val: ""
      }
    }
  }
}
node {
  name: "tree-9/CreateTreeVariable"
  op: "CreateTreeVariable"
  input: "tree-9"
  input: "tree-9/CreateTreeVariable/tree_config"
  device: "/device:CPU:0"
  attr {
    key: "params"
    value {
      s: "\"\007\n\005\r\000\000\000\000*\007\n\005\r\000\000\000\0000\n8\350\007`\005j\005\r\000\000 Ar\005\r\000\000zCz\005\r\244p}?\250\001\r"
    }
  }
}
node {
  name: "tree-9/TreeIsInitializedOp"
  op: "TreeIsInitializedOp"
  input: "tree-9"
  device: "/device:CPU:0"
}
node {
  name: "tree-9/TreeSerialize"
  op: "TreeSerialize"
  input: "tree-9"
  device: "/device:CPU:0"
}
node {
  name: "concat/axis"
  op: "Const"
  attr {
    key: "dtype"
    value {
      type: DT_INT32
    }
  }
  attr {
    key: "value"
    value {
      tensor {
        dtype: DT_INT32
        tensor_shape {
        }
        int_val: 1
      }
    }
  }
}
node {
  name: "concat"
  op: "ConcatV2"
  input: "random_shuffle_queue_DequeueUpTo:1"
  input: "random_shuffle_queue_DequeueUpTo:2"
  input: "random_shuffle_queue_DequeueUpTo:3"
  input: "random_shuffle_queue_DequeueUpTo:4"
  input: "random_shuffle_queue_DequeueUpTo:5"
  input: "random_shuffle_queue_DequeueUpTo:6"
  input: "random_shuffle_queue_DequeueUpTo:7"
  input: "random_shuffle_queue_DequeueUpTo:8"
  input: "random_shuffle_queue_DequeueUpTo:9"
  input: "random_shuffle_queue_DequeueUpTo:10"
  input: "random_shuffle_queue_DequeueUpTo:11"
  input: "random_shuffle_queue_DequeueUpTo:12"
  input: "random_shuffle_queue_DequeueUpTo:13"
  input: "concat/axis"
  attr {
    key: "N"
    value {
      i: 13
    }
  }
  attr {
    key: "T"
    value {
      type: DT_FLOAT
    }
  }
  attr {
    key: "Tidx"
    value {
      type: DT_INT32
    }
  }
}
node {
  name: "TreePredictionsV4/sparse_input_indices"
  op: "Const"
  device: "/device:CPU:0"
  attr {
    key: "dtype"
    value {
      type: DT_INT64
    }
  }
  attr {
    key: "value"
    value {
      tensor {
        dtype: DT_INT64
        tensor_shape {
          dim {
          }
        }
      }
    }
  }
}
node {
  name: "TreePredictionsV4/sparse_input_values"
  op: "Const"
  device: "/device:CPU:0"
  attr {
    key: "dtype"
    value {
      type: DT_FLOAT
    }
  }
  attr {
    key: "value"
    value {
      tensor {
        dtype: DT_FLOAT
        tensor_shape {
          dim {
          }
        }
      }
    }
  }
}
node {
  name: "TreePredictionsV4/sparse_input_shape"
  op: "Const"
  device: "/device:CPU:0"
  attr {
    key: "dtype"
    value {
      type: DT_INT64
    }
  }
  attr {
    key: "value"
    value {
      tensor {
        dtype: DT_INT64
        tensor_shape {
          dim {
          }
        }
      }
    }
  }
}
node {
  name: "TreePredictionsV4"
  op: "TreePredictionsV4"
  input: "tree-0"
  input: "concat"
  input: "TreePredictionsV4/sparse_input_indices"
  input: "TreePredictionsV4/sparse_input_values"
  input: "TreePredictionsV4/sparse_input_shape"
  device: "/device:CPU:0"
  attr {
    key: "input_spec"
    value {
      s: "dense_features_size: 13 dense: [{name: left_sensors_pct original_type: 0 size: 1}{name: plank_1_com_y original_type: 0 size: 1}{name: plank_1_std original_type: 0 size: 1}{name: plank_2_com_y original_type: 0 size: 1}{name: plank_2_std original_type: 0 size: 1}{name: plank_3_com_y original_type: 0 size: 1}{name: plank_3_dev_bucket original_type: 0 size: 1}{name: plank_3_std original_type: 0 size: 1}{name: plank_4_com_y original_type: 0 size: 1}{name: plank_4_dev_bucket original_type: 0 size: 1}{name: plank_4_std original_type: 0 size: 1}{name: plank_4_wrt_3_2 original_type: 0 size: 1}{name: y_errors original_type: 0 size: 1}] sparse: []"
    }
  }
  attr {
    key: "params"
    value {
      s: "\"\007\n\005\r\000\000\000\000*\007\n\005\r\000\000\000\0000\n8\350\007`\005j\005\r\000\000 Ar\005\r\000\000zCz\005\r\244p}?\250\001\r"
    }
  }
}
node {
  name: "TreePredictionsV4_1/sparse_input_indices"
  op: "Const"
  device: "/device:CPU:0"
  attr {
    key: "dtype"
    value {
      type: DT_INT64
    }
  }
  attr {
    key: "value"
    value {
      tensor {
        dtype: DT_INT64
        tensor_shape {
          dim {
          }
        }
      }
    }
  }
}
node {
  name: "TreePredictionsV4_1/sparse_input_values"
  op: "Const"
  device: "/device:CPU:0"
  attr {
    key: "dtype"
    value {
      type: DT_FLOAT
    }
  }
  attr {
    key: "value"
    value {
      tensor {
        dtype: DT_FLOAT
        tensor_shape {
          dim {
          }
        }
      }
    }
  }
}
node {
  name: "TreePredictionsV4_1/sparse_input_shape"
  op: "Const"
  device: "/device:CPU:0"
  attr {
    key: "dtype"
    value {
      type: DT_INT64
    }
  }
  attr {
    key: "value"
    value {
      tensor {
        dtype: DT_INT64
        tensor_shape {
          dim {
          }
        }
      }
    }
  }
}
node {
  name: "TreePredictionsV4_1"
  op: "TreePredictionsV4"
  input: "tree-1"
  input: "concat"
  input: "TreePredictionsV4_1/sparse_input_indices"
  input: "TreePredictionsV4_1/sparse_input_values"
  input: "TreePredictionsV4_1/sparse_input_shape"
  device: "/device:CPU:0"
  attr {
    key: "input_spec"
    value {
      s: "dense_features_size: 13 dense: [{name: left_sensors_pct original_type: 0 size: 1}{name: plank_1_com_y original_type: 0 size: 1}{name: plank_1_std original_type: 0 size: 1}{name: plank_2_com_y original_type: 0 size: 1}{name: plank_2_std original_type: 0 size: 1}{name: plank_3_com_y original_type: 0 size: 1}{name: plank_3_dev_bucket original_type: 0 size: 1}{name: plank_3_std original_type: 0 size: 1}{name: plank_4_com_y original_type: 0 size: 1}{name: plank_4_dev_bucket original_type: 0 size: 1}{name: plank_4_std original_type: 0 size: 1}{name: plank_4_wrt_3_2 original_type: 0 size: 1}{name: y_errors original_type: 0 size: 1}] sparse: []"
    }
  }
  attr {
    key: "params"
    value {
      s: "\"\007\n\005\r\000\000\000\000*\007\n\005\r\000\000\000\0000\n8\350\007`\005j\005\r\000\000 Ar\005\r\000\000zCz\005\r\244p}?\250\001\r"
    }
  }
}
node {
  name: "TreePredictionsV4_2/sparse_input_indices"
  op: "Const"
  device: "/device:CPU:0"
  attr {
    key: "dtype"
    value {
      type: DT_INT64
    }
  }
  attr {
    key: "value"
    value {
      tensor {
        dtype: DT_INT64
        tensor_shape {
          dim {
          }
        }
      }
    }
  }
}
node {
  name: "TreePredictionsV4_2/sparse_input_values"
  op: "Const"
  device: "/device:CPU:0"
  attr {
    key: "dtype"
    value {
      type: DT_FLOAT
    }
  }
  attr {
    key: "value"
    value {
      tensor {
        dtype: DT_FLOAT
        tensor_shape {
          dim {
          }
        }
      }
    }
  }
}
node {
  name: "TreePredictionsV4_2/sparse_input_shape"
  op: "Const"
  device: "/device:CPU:0"
  attr {
    key: "dtype"
    value {
      type: DT_INT64
    }
  }
  attr {
    key: "value"
    value {
      tensor {
        dtype: DT_INT64
        tensor_shape {
          dim {
          }
        }
      }
    }
  }
}
node {
  name: "TreePredictionsV4_2"
  op: "TreePredictionsV4"
  input: "tree-2"
  input: "concat"
  input: "TreePredictionsV4_2/sparse_input_indices"
  input: "TreePredictionsV4_2/sparse_input_values"
  input: "TreePredictionsV4_2/sparse_input_shape"
  device: "/device:CPU:0"
  attr {
    key: "input_spec"
    value {
      s: "dense_features_size: 13 dense: [{name: left_sensors_pct original_type: 0 size: 1}{name: plank_1_com_y original_type: 0 size: 1}{name: plank_1_std original_type: 0 size: 1}{name: plank_2_com_y original_type: 0 size: 1}{name: plank_2_std original_type: 0 size: 1}{name: plank_3_com_y original_type: 0 size: 1}{name: plank_3_dev_bucket original_type: 0 size: 1}{name: plank_3_std original_type: 0 size: 1}{name: plank_4_com_y original_type: 0 size: 1}{name: plank_4_dev_bucket original_type: 0 size: 1}{name: plank_4_std original_type: 0 size: 1}{name: plank_4_wrt_3_2 original_type: 0 size: 1}{name: y_errors original_type: 0 size: 1}] sparse: []"
    }
  }
  attr {
    key: "params"
    value {
      s: "\"\007\n\005\r\000\000\000\000*\007\n\005\r\000\000\000\0000\n8\350\007`\005j\005\r\000\000 Ar\005\r\000\000zCz\005\r\244p}?\250\001\r"
    }
  }
}
node {
  name: "TreePredictionsV4_3/sparse_input_indices"
  op: "Const"
  device: "/device:CPU:0"
  attr {
    key: "dtype"
    value {
      type: DT_INT64
    }
  }
  attr {
    key: "value"
    value {
      tensor {
        dtype: DT_INT64
        tensor_shape {
          dim {
          }
        }
      }
    }
  }
}
node {
  name: "TreePredictionsV4_3/sparse_input_values"
  op: "Const"
  device: "/device:CPU:0"
  attr {
    key: "dtype"
    value {
      type: DT_FLOAT
    }
  }
  attr {
    key: "value"
    value {
      tensor {
        dtype: DT_FLOAT
        tensor_shape {
          dim {
          }
        }
      }
    }
  }
}
node {
  name: "TreePredictionsV4_3/sparse_input_shape"
  op: "Const"
  device: "/device:CPU:0"
  attr {
    key: "dtype"
    value {
      type: DT_INT64
    }
  }
  attr {
    key: "value"
    value {
      tensor {
        dtype: DT_INT64
        tensor_shape {
          dim {
          }
        }
      }
    }
  }
}
node {
  name: "TreePredictionsV4_3"
  op: "TreePredictionsV4"
  input: "tree-3"
  input: "concat"
  input: "TreePredictionsV4_3/sparse_input_indices"
  input: "TreePredictionsV4_3/sparse_input_values"
  input: "TreePredictionsV4_3/sparse_input_shape"
  device: "/device:CPU:0"
  attr {
    key: "input_spec"
    value {
      s: "dense_features_size: 13 dense: [{name: left_sensors_pct original_type: 0 size: 1}{name: plank_1_com_y original_type: 0 size: 1}{name: plank_1_std original_type: 0 size: 1}{name: plank_2_com_y original_type: 0 size: 1}{name: plank_2_std original_type: 0 size: 1}{name: plank_3_com_y original_type: 0 size: 1}{name: plank_3_dev_bucket original_type: 0 size: 1}{name: plank_3_std original_type: 0 size: 1}{name: plank_4_com_y original_type: 0 size: 1}{name: plank_4_dev_bucket original_type: 0 size: 1}{name: plank_4_std original_type: 0 size: 1}{name: plank_4_wrt_3_2 original_type: 0 size: 1}{name: y_errors original_type: 0 size: 1}] sparse: []"
    }
  }
  attr {
    key: "params"
    value {
      s: "\"\007\n\005\r\000\000\000\000*\007\n\005\r\000\000\000\0000\n8\350\007`\005j\005\r\000\000 Ar\005\r\000\000zCz\005\r\244p}?\250\001\r"
    }
  }
}
node {
  name: "TreePredictionsV4_4/sparse_input_indices"
  op: "Const"
  device: "/device:CPU:0"
  attr {
    key: "dtype"
    value {
      type: DT_INT64
    }
  }
  attr {
    key: "value"
    value {
      tensor {
        dtype: DT_INT64
        tensor_shape {
          dim {
          }
        }
      }
    }
  }
}
node {
  name: "TreePredictionsV4_4/sparse_input_values"
  op: "Const"
  device: "/device:CPU:0"
  attr {
    key: "dtype"
    value {
      type: DT_FLOAT
    }
  }
  attr {
    key: "value"
    value {
      tensor {
        dtype: DT_FLOAT
        tensor_shape {
          dim {
          }
        }
      }
    }
  }
}
node {
  name: "TreePredictionsV4_4/sparse_input_shape"
  op: "Const"
  device: "/device:CPU:0"
  attr {
    key: "dtype"
    value {
      type: DT_INT64
    }
  }
  attr {
    key: "value"
    value {
      tensor {
        dtype: DT_INT64
        tensor_shape {
          dim {
          }
        }
      }
    }
  }
}
node {
  name: "TreePredictionsV4_4"
  op: "TreePredictionsV4"
  input: "tree-4"
  input: "concat"
  input: "TreePredictionsV4_4/sparse_input_indices"
  input: "TreePredictionsV4_4/sparse_input_values"
  input: "TreePredictionsV4_4/sparse_input_shape"
  device: "/device:CPU:0"
  attr {
    key: "input_spec"
    value {
      s: "dense_features_size: 13 dense: [{name: left_sensors_pct original_type: 0 size: 1}{name: plank_1_com_y original_type: 0 size: 1}{name: plank_1_std original_type: 0 size: 1}{name: plank_2_com_y original_type: 0 size: 1}{name: plank_2_std original_type: 0 size: 1}{name: plank_3_com_y original_type: 0 size: 1}{name: plank_3_dev_bucket original_type: 0 size: 1}{name: plank_3_std original_type: 0 size: 1}{name: plank_4_com_y original_type: 0 size: 1}{name: plank_4_dev_bucket original_type: 0 size: 1}{name: plank_4_std original_type: 0 size: 1}{name: plank_4_wrt_3_2 original_type: 0 size: 1}{name: y_errors original_type: 0 size: 1}] sparse: []"
    }
  }
  attr {
    key: "params"
    value {
      s: "\"\007\n\005\r\000\000\000\000*\007\n\005\r\000\000\000\0000\n8\350\007`\005j\005\r\000\000 Ar\005\r\000\000zCz\005\r\244p}?\250\001\r"
    }
  }
}
node {
  name: "TreePredictionsV4_5/sparse_input_indices"
  op: "Const"
  device: "/device:CPU:0"
  attr {
    key: "dtype"
    value {
      type: DT_INT64
    }
  }
  attr {
    key: "value"
    value {
      tensor {
        dtype: DT_INT64
        tensor_shape {
          dim {
          }
        }
      }
    }
  }
}
node {
  name: "TreePredictionsV4_5/sparse_input_values"
  op: "Const"
  device: "/device:CPU:0"
  attr {
    key: "dtype"
    value {
      type: DT_FLOAT
    }
  }
  attr {
    key: "value"
    value {
      tensor {
        dtype: DT_FLOAT
        tensor_shape {
          dim {
          }
        }
      }
    }
  }
}
node {
  name: "TreePredictionsV4_5/sparse_input_shape"
  op: "Const"
  device: "/device:CPU:0"
  attr {
    key: "dtype"
    value {
      type: DT_INT64
    }
  }
  attr {
    key: "value"
    value {
      tensor {
        dtype: DT_INT64
        tensor_shape {
          dim {
          }
        }
      }
    }
  }
}
node {
  name: "TreePredictionsV4_5"
  op: "TreePredictionsV4"
  input: "tree-5"
  input: "concat"
  input: "TreePredictionsV4_5/sparse_input_indices"
  input: "TreePredictionsV4_5/sparse_input_values"
  input: "TreePredictionsV4_5/sparse_input_shape"
  device: "/device:CPU:0"
  attr {
    key: "input_spec"
    value {
      s: "dense_features_size: 13 dense: [{name: left_sensors_pct original_type: 0 size: 1}{name: plank_1_com_y original_type: 0 size: 1}{name: plank_1_std original_type: 0 size: 1}{name: plank_2_com_y original_type: 0 size: 1}{name: plank_2_std original_type: 0 size: 1}{name: plank_3_com_y original_type: 0 size: 1}{name: plank_3_dev_bucket original_type: 0 size: 1}{name: plank_3_std original_type: 0 size: 1}{name: plank_4_com_y original_type: 0 size: 1}{name: plank_4_dev_bucket original_type: 0 size: 1}{name: plank_4_std original_type: 0 size: 1}{name: plank_4_wrt_3_2 original_type: 0 size: 1}{name: y_errors original_type: 0 size: 1}] sparse: []"
    }
  }
  attr {
    key: "params"
    value {
      s: "\"\007\n\005\r\000\000\000\000*\007\n\005\r\000\000\000\0000\n8\350\007`\005j\005\r\000\000 Ar\005\r\000\000zCz\005\r\244p}?\250\001\r"
    }
  }
}
node {
  name: "TreePredictionsV4_6/sparse_input_indices"
  op: "Const"
  device: "/device:CPU:0"
  attr {
    key: "dtype"
    value {
      type: DT_INT64
    }
  }
  attr {
    key: "value"
    value {
      tensor {
        dtype: DT_INT64
        tensor_shape {
          dim {
          }
        }
      }
    }
  }
}
node {
  name: "TreePredictionsV4_6/sparse_input_values"
  op: "Const"
  device: "/device:CPU:0"
  attr {
    key: "dtype"
    value {
      type: DT_FLOAT
    }
  }
  attr {
    key: "value"
    value {
      tensor {
        dtype: DT_FLOAT
        tensor_shape {
          dim {
          }
        }
      }
    }
  }
}
node {
  name: "TreePredictionsV4_6/sparse_input_shape"
  op: "Const"
  device: "/device:CPU:0"
  attr {
    key: "dtype"
    value {
      type: DT_INT64
    }
  }
  attr {
    key: "value"
    value {
      tensor {
        dtype: DT_INT64
        tensor_shape {
          dim {
          }
        }
      }
    }
  }
}
node {
  name: "TreePredictionsV4_6"
  op: "TreePredictionsV4"
  input: "tree-6"
  input: "concat"
  input: "TreePredictionsV4_6/sparse_input_indices"
  input: "TreePredictionsV4_6/sparse_input_values"
  input: "TreePredictionsV4_6/sparse_input_shape"
  device: "/device:CPU:0"
  attr {
    key: "input_spec"
    value {
      s: "dense_features_size: 13 dense: [{name: left_sensors_pct original_type: 0 size: 1}{name: plank_1_com_y original_type: 0 size: 1}{name: plank_1_std original_type: 0 size: 1}{name: plank_2_com_y original_type: 0 size: 1}{name: plank_2_std original_type: 0 size: 1}{name: plank_3_com_y original_type: 0 size: 1}{name: plank_3_dev_bucket original_type: 0 size: 1}{name: plank_3_std original_type: 0 size: 1}{name: plank_4_com_y original_type: 0 size: 1}{name: plank_4_dev_bucket original_type: 0 size: 1}{name: plank_4_std original_type: 0 size: 1}{name: plank_4_wrt_3_2 original_type: 0 size: 1}{name: y_errors original_type: 0 size: 1}] sparse: []"
    }
  }
  attr {
    key: "params"
    value {
      s: "\"\007\n\005\r\000\000\000\000*\007\n\005\r\000\000\000\0000\n8\350\007`\005j\005\r\000\000 Ar\005\r\000\000zCz\005\r\244p}?\250\001\r"
    }
  }
}
node {
  name: "TreePredictionsV4_7/sparse_input_indices"
  op: "Const"
  device: "/device:CPU:0"
  attr {
    key: "dtype"
    value {
      type: DT_INT64
    }
  }
  attr {
    key: "value"
    value {
      tensor {
        dtype: DT_INT64
        tensor_shape {
          dim {
          }
        }
      }
    }
  }
}
node {
  name: "TreePredictionsV4_7/sparse_input_values"
  op: "Const"
  device: "/device:CPU:0"
  attr {
    key: "dtype"
    value {
      type: DT_FLOAT
    }
  }
  attr {
    key: "value"
    value {
      tensor {
        dtype: DT_FLOAT
        tensor_shape {
          dim {
          }
        }
      }
    }
  }
}
node {
  name: "TreePredictionsV4_7/sparse_input_shape"
  op: "Const"
  device: "/device:CPU:0"
  attr {
    key: "dtype"
    value {
      type: DT_INT64
    }
  }
  attr {
    key: "value"
    value {
      tensor {
        dtype: DT_INT64
        tensor_shape {
          dim {
          }
        }
      }
    }
  }
}
node {
  name: "TreePredictionsV4_7"
  op: "TreePredictionsV4"
  input: "tree-7"
  input: "concat"
  input: "TreePredictionsV4_7/sparse_input_indices"
  input: "TreePredictionsV4_7/sparse_input_values"
  input: "TreePredictionsV4_7/sparse_input_shape"
  device: "/device:CPU:0"
  attr {
    key: "input_spec"
    value {
      s: "dense_features_size: 13 dense: [{name: left_sensors_pct original_type: 0 size: 1}{name: plank_1_com_y original_type: 0 size: 1}{name: plank_1_std original_type: 0 size: 1}{name: plank_2_com_y original_type: 0 size: 1}{name: plank_2_std original_type: 0 size: 1}{name: plank_3_com_y original_type: 0 size: 1}{name: plank_3_dev_bucket original_type: 0 size: 1}{name: plank_3_std original_type: 0 size: 1}{name: plank_4_com_y original_type: 0 size: 1}{name: plank_4_dev_bucket original_type: 0 size: 1}{name: plank_4_std original_type: 0 size: 1}{name: plank_4_wrt_3_2 original_type: 0 size: 1}{name: y_errors original_type: 0 size: 1}] sparse: []"
    }
  }
  attr {
    key: "params"
    value {
      s: "\"\007\n\005\r\000\000\000\000*\007\n\005\r\000\000\000\0000\n8\350\007`\005j\005\r\000\000 Ar\005\r\000\000zCz\005\r\244p}?\250\001\r"
    }
  }
}
node {
  name: "TreePredictionsV4_8/sparse_input_indices"
  op: "Const"
  device: "/device:CPU:0"
  attr {
    key: "dtype"
    value {
      type: DT_INT64
    }
  }
  attr {
    key: "value"
    value {
      tensor {
        dtype: DT_INT64
        tensor_shape {
          dim {
          }
        }
      }
    }
  }
}
node {
  name: "TreePredictionsV4_8/sparse_input_values"
  op: "Const"
  device: "/device:CPU:0"
  attr {
    key: "dtype"
    value {
      type: DT_FLOAT
    }
  }
  attr {
    key: "value"
    value {
      tensor {
        dtype: DT_FLOAT
        tensor_shape {
          dim {
          }
        }
      }
    }
  }
}
node {
  name: "TreePredictionsV4_8/sparse_input_shape"
  op: "Const"
  device: "/device:CPU:0"
  attr {
    key: "dtype"
    value {
      type: DT_INT64
    }
  }
  attr {
    key: "value"
    value {
      tensor {
        dtype: DT_INT64
        tensor_shape {
          dim {
          }
        }
      }
    }
  }
}
node {
  name: "TreePredictionsV4_8"
  op: "TreePredictionsV4"
  input: "tree-8"
  input: "concat"
  input: "TreePredictionsV4_8/sparse_input_indices"
  input: "TreePredictionsV4_8/sparse_input_values"
  input: "TreePredictionsV4_8/sparse_input_shape"
  device: "/device:CPU:0"
  attr {
    key: "input_spec"
    value {
      s: "dense_features_size: 13 dense: [{name: left_sensors_pct original_type: 0 size: 1}{name: plank_1_com_y original_type: 0 size: 1}{name: plank_1_std original_type: 0 size: 1}{name: plank_2_com_y original_type: 0 size: 1}{name: plank_2_std original_type: 0 size: 1}{name: plank_3_com_y original_type: 0 size: 1}{name: plank_3_dev_bucket original_type: 0 size: 1}{name: plank_3_std original_type: 0 size: 1}{name: plank_4_com_y original_type: 0 size: 1}{name: plank_4_dev_bucket original_type: 0 size: 1}{name: plank_4_std original_type: 0 size: 1}{name: plank_4_wrt_3_2 original_type: 0 size: 1}{name: y_errors original_type: 0 size: 1}] sparse: []"
    }
  }
  attr {
    key: "params"
    value {
      s: "\"\007\n\005\r\000\000\000\000*\007\n\005\r\000\000\000\0000\n8\350\007`\005j\005\r\000\000 Ar\005\r\000\000zCz\005\r\244p}?\250\001\r"
    }
  }
}
node {
  name: "TreePredictionsV4_9/sparse_input_indices"
  op: "Const"
  device: "/device:CPU:0"
  attr {
    key: "dtype"
    value {
      type: DT_INT64
    }
  }
  attr {
    key: "value"
    value {
      tensor {
        dtype: DT_INT64
        tensor_shape {
          dim {
          }
        }
      }
    }
  }
}
node {
  name: "TreePredictionsV4_9/sparse_input_values"
  op: "Const"
  device: "/device:CPU:0"
  attr {
    key: "dtype"
    value {
      type: DT_FLOAT
    }
  }
  attr {
    key: "value"
    value {
      tensor {
        dtype: DT_FLOAT
        tensor_shape {
          dim {
          }
        }
      }
    }
  }
}
node {
  name: "TreePredictionsV4_9/sparse_input_shape"
  op: "Const"
  device: "/device:CPU:0"
  attr {
    key: "dtype"
    value {
      type: DT_INT64
    }
  }
  attr {
    key: "value"
    value {
      tensor {
        dtype: DT_INT64
        tensor_shape {
          dim {
          }
        }
      }
    }
  }
}
node {
  name: "TreePredictionsV4_9"
  op: "TreePredictionsV4"
  input: "tree-9"
  input: "concat"
  input: "TreePredictionsV4_9/sparse_input_indices"
  input: "TreePredictionsV4_9/sparse_input_values"
  input: "TreePredictionsV4_9/sparse_input_shape"
  device: "/device:CPU:0"
  attr {
    key: "input_spec"
    value {
      s: "dense_features_size: 13 dense: [{name: left_sensors_pct original_type: 0 size: 1}{name: plank_1_com_y original_type: 0 size: 1}{name: plank_1_std original_type: 0 size: 1}{name: plank_2_com_y original_type: 0 size: 1}{name: plank_2_std original_type: 0 size: 1}{name: plank_3_com_y original_type: 0 size: 1}{name: plank_3_dev_bucket original_type: 0 size: 1}{name: plank_3_std original_type: 0 size: 1}{name: plank_4_com_y original_type: 0 size: 1}{name: plank_4_dev_bucket original_type: 0 size: 1}{name: plank_4_std original_type: 0 size: 1}{name: plank_4_wrt_3_2 original_type: 0 size: 1}{name: y_errors original_type: 0 size: 1}] sparse: []"
    }
  }
  attr {
    key: "params"
    value {
      s: "\"\007\n\005\r\000\000\000\000*\007\n\005\r\000\000\000\0000\n8\350\007`\005j\005\r\000\000 Ar\005\r\000\000zCz\005\r\244p}?\250\001\r"
    }
  }
}
node {
  name: "stack"
  op: "Pack"
  input: "TreePredictionsV4"
  input: "TreePredictionsV4_1"
  input: "TreePredictionsV4_2"
  input: "TreePredictionsV4_3"
  input: "TreePredictionsV4_4"
  input: "TreePredictionsV4_5"
  input: "TreePredictionsV4_6"
  input: "TreePredictionsV4_7"
  input: "TreePredictionsV4_8"
  input: "TreePredictionsV4_9"
  device: "/device:CPU:0"
  attr {
    key: "N"
    value {
      i: 10
    }
  }
  attr {
    key: "T"
    value {
      type: DT_FLOAT
    }
  }
  attr {
    key: "axis"
    value {
      i: 1
    }
  }
}
node {
  name: "Sum/reduction_indices"
  op: "Const"
  device: "/device:CPU:0"
  attr {
    key: "dtype"
    value {
      type: DT_INT32
    }
  }
  attr {
    key: "value"
    value {
      tensor {
        dtype: DT_INT32
        tensor_shape {
        }
        int_val: 1
      }
    }
  }
}
node {
  name: "Sum"
  op: "Sum"
  input: "stack"
  input: "Sum/reduction_indices"
  device: "/device:CPU:0"
  attr {
    key: "T"
    value {
      type: DT_FLOAT
    }
  }
  attr {
    key: "Tidx"
    value {
      type: DT_INT32
    }
  }
  attr {
    key: "keep_dims"
    value {
      b: false
    }
  }
}
node {
  name: "probabilities/y"
  op: "Const"
  device: "/device:CPU:0"
  attr {
    key: "dtype"
    value {
      type: DT_FLOAT
    }
  }
  attr {
    key: "value"
    value {
      tensor {
        dtype: DT_FLOAT
        tensor_shape {
        }
        float_val: 10.0
      }
    }
  }
}
node {
  name: "probabilities"
  op: "RealDiv"
  input: "Sum"
  input: "probabilities/y"
  device: "/device:CPU:0"
  attr {
    key: "T"
    value {
      type: DT_FLOAT
    }
  }
}
node {
  name: "stack_1"
  op: "Pack"
  input: "TreePredictionsV4:1"
  input: "TreePredictionsV4_1:1"
  input: "TreePredictionsV4_2:1"
  input: "TreePredictionsV4_3:1"
  input: "TreePredictionsV4_4:1"
  input: "TreePredictionsV4_5:1"
  input: "TreePredictionsV4_6:1"
  input: "TreePredictionsV4_7:1"
  input: "TreePredictionsV4_8:1"
  input: "TreePredictionsV4_9:1"
  device: "/device:CPU:0"
  attr {
    key: "N"
    value {
      i: 10
    }
  }
  attr {
    key: "T"
    value {
      type: DT_STRING
    }
  }
  attr {
    key: "axis"
    value {
      i: 1
    }
  }
}
node {
  name: "mul"
  op: "Mul"
  input: "stack"
  input: "stack"
  device: "/device:CPU:0"
  attr {
    key: "T"
    value {
      type: DT_FLOAT
    }
  }
}
node {
  name: "Sum_1/reduction_indices"
  op: "Const"
  device: "/device:CPU:0"
  attr {
    key: "dtype"
    value {
      type: DT_INT32
    }
  }
  attr {
    key: "value"
    value {
      tensor {
        dtype: DT_INT32
        tensor_shape {
        }
        int_val: 1
      }
    }
  }
}
node {
  name: "Sum_1"
  op: "Sum"
  input: "mul"
  input: "Sum_1/reduction_indices"
  device: "/device:CPU:0"
  attr {
    key: "T"
    value {
      type: DT_FLOAT
    }
  }
  attr {
    key: "Tidx"
    value {
      type: DT_INT32
    }
  }
  attr {
    key: "keep_dims"
    value {
      b: false
    }
  }
}
node {
  name: "div/y"
  op: "Const"
  device: "/device:CPU:0"
  attr {
    key: "dtype"
    value {
      type: DT_FLOAT
    }
  }
  attr {
    key: "value"
    value {
      tensor {
        dtype: DT_FLOAT
        tensor_shape {
        }
        float_val: 10.0
      }
    }
  }
}
node {
  name: "div"
  op: "RealDiv"
  input: "Sum_1"
  input: "div/y"
  device: "/device:CPU:0"
  attr {
    key: "T"
    value {
      type: DT_FLOAT
    }
  }
}
node {
  name: "mul_1"
  op: "Mul"
  input: "probabilities"
  input: "probabilities"
  device: "/device:CPU:0"
  attr {
    key: "T"
    value {
      type: DT_FLOAT
    }
  }
}
node {
  name: "sub"
  op: "Sub"
  input: "div"
  input: "mul_1"
  device: "/device:CPU:0"
  attr {
    key: "T"
    value {
      type: DT_FLOAT
    }
  }
}
node {
  name: "Maximum/x"
  op: "Const"
  device: "/device:CPU:0"
  attr {
    key: "dtype"
    value {
      type: DT_FLOAT
    }
  }
  attr {
    key: "value"
    value {
      tensor {
        dtype: DT_FLOAT
        tensor_shape {
        }
        float_val: 0.0
      }
    }
  }
}
node {
  name: "Maximum"
  op: "Maximum"
  input: "Maximum/x"
  input: "sub"
  device: "/device:CPU:0"
  attr {
    key: "T"
    value {
      type: DT_FLOAT
    }
  }
}
node {
  name: "TreeSize"
  op: "TreeSize"
  input: "tree-0"
  device: "/device:CPU:0"
}
node {
  name: "TreeSize_1"
  op: "TreeSize"
  input: "tree-1"
  device: "/device:CPU:0"
}
node {
  name: "TreeSize_2"
  op: "TreeSize"
  input: "tree-2"
  device: "/device:CPU:0"
}
node {
  name: "TreeSize_3"
  op: "TreeSize"
  input: "tree-3"
  device: "/device:CPU:0"
}
node {
  name: "TreeSize_4"
  op: "TreeSize"
  input: "tree-4"
  device: "/device:CPU:0"
}
node {
  name: "TreeSize_5"
  op: "TreeSize"
  input: "tree-5"
  device: "/device:CPU:0"
}
node {
  name: "TreeSize_6"
  op: "TreeSize"
  input: "tree-6"
  device: "/device:CPU:0"
}
node {
  name: "TreeSize_7"
  op: "TreeSize"
  input: "tree-7"
  device: "/device:CPU:0"
}
node {
  name: "TreeSize_8"
  op: "TreeSize"
  input: "tree-8"
  device: "/device:CPU:0"
}
node {
  name: "TreeSize_9"
  op: "TreeSize"
  input: "tree-9"
  device: "/device:CPU:0"
}
node {
  name: "stack_2"
  op: "Pack"
  input: "TreeSize"
  input: "TreeSize_1"
  input: "TreeSize_2"
  input: "TreeSize_3"
  input: "TreeSize_4"
  input: "TreeSize_5"
  input: "TreeSize_6"
  input: "TreeSize_7"
  input: "TreeSize_8"
  input: "TreeSize_9"
  attr {
    key: "N"
    value {
      i: 10
    }
  }
  attr {
    key: "T"
    value {
      type: DT_INT32
    }
  }
  attr {
    key: "axis"
    value {
      i: 0
    }
  }
}
node {
  name: "ToFloat"
  op: "Cast"
  input: "stack_2"
  attr {
    key: "DstT"
    value {
      type: DT_FLOAT
    }
  }
  attr {
    key: "SrcT"
    value {
      type: DT_INT32
    }
  }
  attr {
    key: "Truncate"
    value {
      b: false
    }
  }
}
node {
  name: "Const"
  op: "Const"
  attr {
    key: "dtype"
    value {
      type: DT_INT32
    }
  }
  attr {
    key: "value"
    value {
      tensor {
        dtype: DT_INT32
        tensor_shape {
          dim {
            size: 1
          }
        }
        int_val: 0
      }
    }
  }
}
node {
  name: "Mean"
  op: "Mean"
  input: "ToFloat"
  input: "Const"
  attr {
    key: "T"
    value {
      type: DT_FLOAT
    }
  }
  attr {
    key: "Tidx"
    value {
      type: DT_INT32
    }
  }
  attr {
    key: "keep_dims"
    value {
      b: false
    }
  }
}
node {
  name: "average_tree_size/tags"
  op: "Const"
  attr {
    key: "dtype"
    value {
      type: DT_STRING
    }
  }
  attr {
    key: "value"
    value {
      tensor {
        dtype: DT_STRING
        tensor_shape {
        }
        string_val: "average_tree_size"
      }
    }
  }
}
node {
  name: "average_tree_size"
  op: "ScalarSummary"
  input: "average_tree_size/tags"
  input: "Mean"
  attr {
    key: "T"
    value {
      type: DT_FLOAT
    }
  }
}
node {
  name: "concat_1/axis"
  op: "Const"
  input: "^probabilities"
  attr {
    key: "dtype"
    value {
      type: DT_INT32
    }
  }
  attr {
    key: "value"
    value {
      tensor {
        dtype: DT_INT32
        tensor_shape {
        }
        int_val: 1
      }
    }
  }
}
node {
  name: "concat_1"
  op: "ConcatV2"
  input: "random_shuffle_queue_DequeueUpTo:1"
  input: "random_shuffle_queue_DequeueUpTo:2"
  input: "random_shuffle_queue_DequeueUpTo:3"
  input: "random_shuffle_queue_DequeueUpTo:4"
  input: "random_shuffle_queue_DequeueUpTo:5"
  input: "random_shuffle_queue_DequeueUpTo:6"
  input: "random_shuffle_queue_DequeueUpTo:7"
  input: "random_shuffle_queue_DequeueUpTo:8"
  input: "random_shuffle_queue_DequeueUpTo:9"
  input: "random_shuffle_queue_DequeueUpTo:10"
  input: "random_shuffle_queue_DequeueUpTo:11"
  input: "random_shuffle_queue_DequeueUpTo:12"
  input: "random_shuffle_queue_DequeueUpTo:13"
  input: "concat_1/axis"
  attr {
    key: "N"
    value {
      i: 13
    }
  }
  attr {
    key: "T"
    value {
      type: DT_FLOAT
    }
  }
  attr {
    key: "Tidx"
    value {
      type: DT_INT32
    }
  }
}
node {
  name: "ToFloat_1"
  op: "Cast"
  input: "random_shuffle_queue_DequeueUpTo:14"
  input: "^probabilities"
  attr {
    key: "DstT"
    value {
      type: DT_FLOAT
    }
  }
  attr {
    key: "SrcT"
    value {
      type: DT_INT64
    }
  }
  attr {
    key: "Truncate"
    value {
      b: false
    }
  }
}
node {
  name: "ToInt32/x"
  op: "Const"
  input: "^probabilities"
  device: "/device:CPU:0"
  attr {
    key: "dtype"
    value {
      type: DT_INT32
    }
  }
  attr {
    key: "value"
    value {
      tensor {
        dtype: DT_INT32
        tensor_shape {
          dim {
            size: 1
          }
        }
        int_val: 0
      }
    }
  }
}
node {
  name: "TraverseTreeV4/sparse_input_indices"
  op: "Const"
  input: "^probabilities"
  device: "/device:CPU:0"
  attr {
    key: "dtype"
    value {
      type: DT_INT64
    }
  }
  attr {
    key: "value"
    value {
      tensor {
        dtype: DT_INT64
        tensor_shape {
          dim {
          }
        }
      }
    }
  }
}
node {
  name: "TraverseTreeV4/sparse_input_values"
  op: "Const"
  input: "^probabilities"
  device: "/device:CPU:0"
  attr {
    key: "dtype"
    value {
      type: DT_FLOAT
    }
  }
  attr {
    key: "value"
    value {
      tensor {
        dtype: DT_FLOAT
        tensor_shape {
          dim {
          }
        }
      }
    }
  }
}
node {
  name: "TraverseTreeV4/sparse_input_shape"
  op: "Const"
  input: "^probabilities"
  device: "/device:CPU:0"
  attr {
    key: "dtype"
    value {
      type: DT_INT64
    }
  }
  attr {
    key: "value"
    value {
      tensor {
        dtype: DT_INT64
        tensor_shape {
          dim {
          }
        }
      }
    }
  }
}
node {
  name: "TraverseTreeV4"
  op: "TraverseTreeV4"
  input: "tree-0"
  input: "concat_1"
  input: "TraverseTreeV4/sparse_input_indices"
  input: "TraverseTreeV4/sparse_input_values"
  input: "TraverseTreeV4/sparse_input_shape"
  device: "/device:CPU:0"
  attr {
    key: "input_spec"
    value {
      s: "dense_features_size: 13 dense: [{name: left_sensors_pct original_type: 0 size: 1}{name: plank_1_com_y original_type: 0 size: 1}{name: plank_1_std original_type: 0 size: 1}{name: plank_2_com_y original_type: 0 size: 1}{name: plank_2_std original_type: 0 size: 1}{name: plank_3_com_y original_type: 0 size: 1}{name: plank_3_dev_bucket original_type: 0 size: 1}{name: plank_3_std original_type: 0 size: 1}{name: plank_4_com_y original_type: 0 size: 1}{name: plank_4_dev_bucket original_type: 0 size: 1}{name: plank_4_std original_type: 0 size: 1}{name: plank_4_wrt_3_2 original_type: 0 size: 1}{name: y_errors original_type: 0 size: 1}] sparse: []"
    }
  }
  attr {
    key: "params"
    value {
      s: "\"\007\n\005\r\000\000\000\000*\007\n\005\r\000\000\000\0000\n8\350\007`\005j\005\r\000\000 Ar\005\r\000\000zCz\005\r\244p}?\250\001\r"
    }
  }
}
node {
  name: "UpdateModelV4/input_weights"
  op: "Const"
  input: "^probabilities"
  device: "/device:CPU:0"
  attr {
    key: "dtype"
    value {
      type: DT_FLOAT
    }
  }
  attr {
    key: "value"
    value {
      tensor {
        dtype: DT_FLOAT
        tensor_shape {
          dim {
          }
        }
      }
    }
  }
}
node {
  name: "UpdateModelV4"
  op: "UpdateModelV4"
  input: "tree-0"
  input: "TraverseTreeV4"
  input: "ToFloat_1"
  input: "UpdateModelV4/input_weights"
  device: "/device:CPU:0"
  attr {
    key: "params"
    value {
      s: "\"\007\n\005\r\000\000\000\000*\007\n\005\r\000\000\000\0000\n8\350\007`\005j\005\r\000\000 Ar\005\r\000\000zCz\005\r\244p}?\250\001\r"
    }
  }
}
node {
  name: "ProcessInputV4/sparse_input_indices"
  op: "Const"
  input: "^probabilities"
  device: "/device:CPU:0"
  attr {
    key: "dtype"
    value {
      type: DT_INT64
    }
  }
  attr {
    key: "value"
    value {
      tensor {
        dtype: DT_INT64
        tensor_shape {
          dim {
          }
        }
      }
    }
  }
}
node {
  name: "ProcessInputV4/sparse_input_values"
  op: "Const"
  input: "^probabilities"
  device: "/device:CPU:0"
  attr {
    key: "dtype"
    value {
      type: DT_FLOAT
    }
  }
  attr {
    key: "value"
    value {
      tensor {
        dtype: DT_FLOAT
        tensor_shape {
          dim {
          }
        }
      }
    }
  }
}
node {
  name: "ProcessInputV4/sparse_input_shape"
  op: "Const"
  input: "^probabilities"
  device: "/device:CPU:0"
  attr {
    key: "dtype"
    value {
      type: DT_INT64
    }
  }
  attr {
    key: "value"
    value {
      tensor {
        dtype: DT_INT64
        tensor_shape {
          dim {
          }
        }
      }
    }
  }
}
node {
  name: "ProcessInputV4/input_weights"
  op: "Const"
  input: "^probabilities"
  device: "/device:CPU:0"
  attr {
    key: "dtype"
    value {
      type: DT_FLOAT
    }
  }
  attr {
    key: "value"
    value {
      tensor {
        dtype: DT_FLOAT
        tensor_shape {
          dim {
          }
        }
      }
    }
  }
}
node {
  name: "ProcessInputV4"
  op: "ProcessInputV4"
  input: "tree-0"
  input: "stats-0"
  input: "concat_1"
  input: "ProcessInputV4/sparse_input_indices"
  input: "ProcessInputV4/sparse_input_values"
  input: "ProcessInputV4/sparse_input_shape"
  input: "ToFloat_1"
  input: "ProcessInputV4/input_weights"
  input: "TraverseTreeV4"
  device: "/device:CPU:0"
  attr {
    key: "input_spec"
    value {
      s: "dense_features_size: 13 dense: [{name: left_sensors_pct original_type: 0 size: 1}{name: plank_1_com_y original_type: 0 size: 1}{name: plank_1_std original_type: 0 size: 1}{name: plank_2_com_y original_type: 0 size: 1}{name: plank_2_std original_type: 0 size: 1}{name: plank_3_com_y original_type: 0 size: 1}{name: plank_3_dev_bucket original_type: 0 size: 1}{name: plank_3_std original_type: 0 size: 1}{name: plank_4_com_y original_type: 0 size: 1}{name: plank_4_dev_bucket original_type: 0 size: 1}{name: plank_4_std original_type: 0 size: 1}{name: plank_4_wrt_3_2 original_type: 0 size: 1}{name: y_errors original_type: 0 size: 1}] sparse: []"
    }
  }
  attr {
    key: "params"
    value {
      s: "\"\007\n\005\r\000\000\000\000*\007\n\005\r\000\000\000\0000\n8\350\007`\005j\005\r\000\000 Ar\005\r\000\000zCz\005\r\244p}?\250\001\r"
    }
  }
  attr {
    key: "random_seed"
    value {
      i: 0
    }
  }
}
node {
  name: "GrowTreeV4"
  op: "GrowTreeV4"
  input: "tree-0"
  input: "stats-0"
  input: "ProcessInputV4"
  input: "^UpdateModelV4"
  device: "/device:CPU:0"
  attr {
    key: "params"
    value {
      s: "\"\007\n\005\r\000\000\000\000*\007\n\005\r\000\000\000\0000\n8\350\007`\005j\005\r\000\000 Ar\005\r\000\000zCz\005\r\244p}?\250\001\r"
    }
  }
}
node {
  name: "ToInt32_1/x"
  op: "Const"
  input: "^probabilities"
  device: "/device:CPU:0"
  attr {
    key: "dtype"
    value {
      type: DT_INT32
    }
  }
  attr {
    key: "value"
    value {
      tensor {
        dtype: DT_INT32
        tensor_shape {
          dim {
            size: 1
          }
        }
        int_val: 0
      }
    }
  }
}
node {
  name: "TraverseTreeV4_1/sparse_input_indices"
  op: "Const"
  input: "^probabilities"
  device: "/device:CPU:0"
  attr {
    key: "dtype"
    value {
      type: DT_INT64
    }
  }
  attr {
    key: "value"
    value {
      tensor {
        dtype: DT_INT64
        tensor_shape {
          dim {
          }
        }
      }
    }
  }
}
node {
  name: "TraverseTreeV4_1/sparse_input_values"
  op: "Const"
  input: "^probabilities"
  device: "/device:CPU:0"
  attr {
    key: "dtype"
    value {
      type: DT_FLOAT
    }
  }
  attr {
    key: "value"
    value {
      tensor {
        dtype: DT_FLOAT
        tensor_shape {
          dim {
          }
        }
      }
    }
  }
}
node {
  name: "TraverseTreeV4_1/sparse_input_shape"
  op: "Const"
  input: "^probabilities"
  device: "/device:CPU:0"
  attr {
    key: "dtype"
    value {
      type: DT_INT64
    }
  }
  attr {
    key: "value"
    value {
      tensor {
        dtype: DT_INT64
        tensor_shape {
          dim {
          }
        }
      }
    }
  }
}
node {
  name: "TraverseTreeV4_1"
  op: "TraverseTreeV4"
  input: "tree-1"
  input: "concat_1"
  input: "TraverseTreeV4_1/sparse_input_indices"
  input: "TraverseTreeV4_1/sparse_input_values"
  input: "TraverseTreeV4_1/sparse_input_shape"
  device: "/device:CPU:0"
  attr {
    key: "input_spec"
    value {
      s: "dense_features_size: 13 dense: [{name: left_sensors_pct original_type: 0 size: 1}{name: plank_1_com_y original_type: 0 size: 1}{name: plank_1_std original_type: 0 size: 1}{name: plank_2_com_y original_type: 0 size: 1}{name: plank_2_std original_type: 0 size: 1}{name: plank_3_com_y original_type: 0 size: 1}{name: plank_3_dev_bucket original_type: 0 size: 1}{name: plank_3_std original_type: 0 size: 1}{name: plank_4_com_y original_type: 0 size: 1}{name: plank_4_dev_bucket original_type: 0 size: 1}{name: plank_4_std original_type: 0 size: 1}{name: plank_4_wrt_3_2 original_type: 0 size: 1}{name: y_errors original_type: 0 size: 1}] sparse: []"
    }
  }
  attr {
    key: "params"
    value {
      s: "\"\007\n\005\r\000\000\000\000*\007\n\005\r\000\000\000\0000\n8\350\007`\005j\005\r\000\000 Ar\005\r\000\000zCz\005\r\244p}?\250\001\r"
    }
  }
}
node {
  name: "UpdateModelV4_1/input_weights"
  op: "Const"
  input: "^probabilities"
  device: "/device:CPU:0"
  attr {
    key: "dtype"
    value {
      type: DT_FLOAT
    }
  }
  attr {
    key: "value"
    value {
      tensor {
        dtype: DT_FLOAT
        tensor_shape {
          dim {
          }
        }
      }
    }
  }
}
node {
  name: "UpdateModelV4_1"
  op: "UpdateModelV4"
  input: "tree-1"
  input: "TraverseTreeV4_1"
  input: "ToFloat_1"
  input: "UpdateModelV4_1/input_weights"
  device: "/device:CPU:0"
  attr {
    key: "params"
    value {
      s: "\"\007\n\005\r\000\000\000\000*\007\n\005\r\000\000\000\0000\n8\350\007`\005j\005\r\000\000 Ar\005\r\000\000zCz\005\r\244p}?\250\001\r"
    }
  }
}
node {
  name: "ProcessInputV4_1/sparse_input_indices"
  op: "Const"
  input: "^probabilities"
  device: "/device:CPU:0"
  attr {
    key: "dtype"
    value {
      type: DT_INT64
    }
  }
  attr {
    key: "value"
    value {
      tensor {
        dtype: DT_INT64
        tensor_shape {
          dim {
          }
        }
      }
    }
  }
}
node {
  name: "ProcessInputV4_1/sparse_input_values"
  op: "Const"
  input: "^probabilities"
  device: "/device:CPU:0"
  attr {
    key: "dtype"
    value {
      type: DT_FLOAT
    }
  }
  attr {
    key: "value"
    value {
      tensor {
        dtype: DT_FLOAT
        tensor_shape {
          dim {
          }
        }
      }
    }
  }
}
node {
  name: "ProcessInputV4_1/sparse_input_shape"
  op: "Const"
  input: "^probabilities"
  device: "/device:CPU:0"
  attr {
    key: "dtype"
    value {
      type: DT_INT64
    }
  }
  attr {
    key: "value"
    value {
      tensor {
        dtype: DT_INT64
        tensor_shape {
          dim {
          }
        }
      }
    }
  }
}
node {
  name: "ProcessInputV4_1/input_weights"
  op: "Const"
  input: "^probabilities"
  device: "/device:CPU:0"
  attr {
    key: "dtype"
    value {
      type: DT_FLOAT
    }
  }
  attr {
    key: "value"
    value {
      tensor {
        dtype: DT_FLOAT
        tensor_shape {
          dim {
          }
        }
      }
    }
  }
}
node {
  name: "ProcessInputV4_1"
  op: "ProcessInputV4"
  input: "tree-1"
  input: "stats-1"
  input: "concat_1"
  input: "ProcessInputV4_1/sparse_input_indices"
  input: "ProcessInputV4_1/sparse_input_values"
  input: "ProcessInputV4_1/sparse_input_shape"
  input: "ToFloat_1"
  input: "ProcessInputV4_1/input_weights"
  input: "TraverseTreeV4_1"
  device: "/device:CPU:0"
  attr {
    key: "input_spec"
    value {
      s: "dense_features_size: 13 dense: [{name: left_sensors_pct original_type: 0 size: 1}{name: plank_1_com_y original_type: 0 size: 1}{name: plank_1_std original_type: 0 size: 1}{name: plank_2_com_y original_type: 0 size: 1}{name: plank_2_std original_type: 0 size: 1}{name: plank_3_com_y original_type: 0 size: 1}{name: plank_3_dev_bucket original_type: 0 size: 1}{name: plank_3_std original_type: 0 size: 1}{name: plank_4_com_y original_type: 0 size: 1}{name: plank_4_dev_bucket original_type: 0 size: 1}{name: plank_4_std original_type: 0 size: 1}{name: plank_4_wrt_3_2 original_type: 0 size: 1}{name: y_errors original_type: 0 size: 1}] sparse: []"
    }
  }
  attr {
    key: "params"
    value {
      s: "\"\007\n\005\r\000\000\000\000*\007\n\005\r\000\000\000\0000\n8\350\007`\005j\005\r\000\000 Ar\005\r\000\000zCz\005\r\244p}?\250\001\r"
    }
  }
  attr {
    key: "random_seed"
    value {
      i: 0
    }
  }
}
node {
  name: "GrowTreeV4_1"
  op: "GrowTreeV4"
  input: "tree-1"
  input: "stats-1"
  input: "ProcessInputV4_1"
  input: "^UpdateModelV4_1"
  device: "/device:CPU:0"
  attr {
    key: "params"
    value {
      s: "\"\007\n\005\r\000\000\000\000*\007\n\005\r\000\000\000\0000\n8\350\007`\005j\005\r\000\000 Ar\005\r\000\000zCz\005\r\244p}?\250\001\r"
    }
  }
}
node {
  name: "ToInt32_2/x"
  op: "Const"
  input: "^probabilities"
  device: "/device:CPU:0"
  attr {
    key: "dtype"
    value {
      type: DT_INT32
    }
  }
  attr {
    key: "value"
    value {
      tensor {
        dtype: DT_INT32
        tensor_shape {
          dim {
            size: 1
          }
        }
        int_val: 0
      }
    }
  }
}
node {
  name: "TraverseTreeV4_2/sparse_input_indices"
  op: "Const"
  input: "^probabilities"
  device: "/device:CPU:0"
  attr {
    key: "dtype"
    value {
      type: DT_INT64
    }
  }
  attr {
    key: "value"
    value {
      tensor {
        dtype: DT_INT64
        tensor_shape {
          dim {
          }
        }
      }
    }
  }
}
node {
  name: "TraverseTreeV4_2/sparse_input_values"
  op: "Const"
  input: "^probabilities"
  device: "/device:CPU:0"
  attr {
    key: "dtype"
    value {
      type: DT_FLOAT
    }
  }
  attr {
    key: "value"
    value {
      tensor {
        dtype: DT_FLOAT
        tensor_shape {
          dim {
          }
        }
      }
    }
  }
}
node {
  name: "TraverseTreeV4_2/sparse_input_shape"
  op: "Const"
  input: "^probabilities"
  device: "/device:CPU:0"
  attr {
    key: "dtype"
    value {
      type: DT_INT64
    }
  }
  attr {
    key: "value"
    value {
      tensor {
        dtype: DT_INT64
        tensor_shape {
          dim {
          }
        }
      }
    }
  }
}
node {
  name: "TraverseTreeV4_2"
  op: "TraverseTreeV4"
  input: "tree-2"
  input: "concat_1"
  input: "TraverseTreeV4_2/sparse_input_indices"
  input: "TraverseTreeV4_2/sparse_input_values"
  input: "TraverseTreeV4_2/sparse_input_shape"
  device: "/device:CPU:0"
  attr {
    key: "input_spec"
    value {
      s: "dense_features_size: 13 dense: [{name: left_sensors_pct original_type: 0 size: 1}{name: plank_1_com_y original_type: 0 size: 1}{name: plank_1_std original_type: 0 size: 1}{name: plank_2_com_y original_type: 0 size: 1}{name: plank_2_std original_type: 0 size: 1}{name: plank_3_com_y original_type: 0 size: 1}{name: plank_3_dev_bucket original_type: 0 size: 1}{name: plank_3_std original_type: 0 size: 1}{name: plank_4_com_y original_type: 0 size: 1}{name: plank_4_dev_bucket original_type: 0 size: 1}{name: plank_4_std original_type: 0 size: 1}{name: plank_4_wrt_3_2 original_type: 0 size: 1}{name: y_errors original_type: 0 size: 1}] sparse: []"
    }
  }
  attr {
    key: "params"
    value {
      s: "\"\007\n\005\r\000\000\000\000*\007\n\005\r\000\000\000\0000\n8\350\007`\005j\005\r\000\000 Ar\005\r\000\000zCz\005\r\244p}?\250\001\r"
    }
  }
}
node {
  name: "UpdateModelV4_2/input_weights"
  op: "Const"
  input: "^probabilities"
  device: "/device:CPU:0"
  attr {
    key: "dtype"
    value {
      type: DT_FLOAT
    }
  }
  attr {
    key: "value"
    value {
      tensor {
        dtype: DT_FLOAT
        tensor_shape {
          dim {
          }
        }
      }
    }
  }
}
node {
  name: "UpdateModelV4_2"
  op: "UpdateModelV4"
  input: "tree-2"
  input: "TraverseTreeV4_2"
  input: "ToFloat_1"
  input: "UpdateModelV4_2/input_weights"
  device: "/device:CPU:0"
  attr {
    key: "params"
    value {
      s: "\"\007\n\005\r\000\000\000\000*\007\n\005\r\000\000\000\0000\n8\350\007`\005j\005\r\000\000 Ar\005\r\000\000zCz\005\r\244p}?\250\001\r"
    }
  }
}
node {
  name: "ProcessInputV4_2/sparse_input_indices"
  op: "Const"
  input: "^probabilities"
  device: "/device:CPU:0"
  attr {
    key: "dtype"
    value {
      type: DT_INT64
    }
  }
  attr {
    key: "value"
    value {
      tensor {
        dtype: DT_INT64
        tensor_shape {
          dim {
          }
        }
      }
    }
  }
}
node {
  name: "ProcessInputV4_2/sparse_input_values"
  op: "Const"
  input: "^probabilities"
  device: "/device:CPU:0"
  attr {
    key: "dtype"
    value {
      type: DT_FLOAT
    }
  }
  attr {
    key: "value"
    value {
      tensor {
        dtype: DT_FLOAT
        tensor_shape {
          dim {
          }
        }
      }
    }
  }
}
node {
  name: "ProcessInputV4_2/sparse_input_shape"
  op: "Const"
  input: "^probabilities"
  device: "/device:CPU:0"
  attr {
    key: "dtype"
    value {
      type: DT_INT64
    }
  }
  attr {
    key: "value"
    value {
      tensor {
        dtype: DT_INT64
        tensor_shape {
          dim {
          }
        }
      }
    }
  }
}
node {
  name: "ProcessInputV4_2/input_weights"
  op: "Const"
  input: "^probabilities"
  device: "/device:CPU:0"
  attr {
    key: "dtype"
    value {
      type: DT_FLOAT
    }
  }
  attr {
    key: "value"
    value {
      tensor {
        dtype: DT_FLOAT
        tensor_shape {
          dim {
          }
        }
      }
    }
  }
}
node {
  name: "ProcessInputV4_2"
  op: "ProcessInputV4"
  input: "tree-2"
  input: "stats-2"
  input: "concat_1"
  input: "ProcessInputV4_2/sparse_input_indices"
  input: "ProcessInputV4_2/sparse_input_values"
  input: "ProcessInputV4_2/sparse_input_shape"
  input: "ToFloat_1"
  input: "ProcessInputV4_2/input_weights"
  input: "TraverseTreeV4_2"
  device: "/device:CPU:0"
  attr {
    key: "input_spec"
    value {
      s: "dense_features_size: 13 dense: [{name: left_sensors_pct original_type: 0 size: 1}{name: plank_1_com_y original_type: 0 size: 1}{name: plank_1_std original_type: 0 size: 1}{name: plank_2_com_y original_type: 0 size: 1}{name: plank_2_std original_type: 0 size: 1}{name: plank_3_com_y original_type: 0 size: 1}{name: plank_3_dev_bucket original_type: 0 size: 1}{name: plank_3_std original_type: 0 size: 1}{name: plank_4_com_y original_type: 0 size: 1}{name: plank_4_dev_bucket original_type: 0 size: 1}{name: plank_4_std original_type: 0 size: 1}{name: plank_4_wrt_3_2 original_type: 0 size: 1}{name: y_errors original_type: 0 size: 1}] sparse: []"
    }
  }
  attr {
    key: "params"
    value {
      s: "\"\007\n\005\r\000\000\000\000*\007\n\005\r\000\000\000\0000\n8\350\007`\005j\005\r\000\000 Ar\005\r\000\000zCz\005\r\244p}?\250\001\r"
    }
  }
  attr {
    key: "random_seed"
    value {
      i: 0
    }
  }
}
node {
  name: "GrowTreeV4_2"
  op: "GrowTreeV4"
  input: "tree-2"
  input: "stats-2"
  input: "ProcessInputV4_2"
  input: "^UpdateModelV4_2"
  device: "/device:CPU:0"
  attr {
    key: "params"
    value {
      s: "\"\007\n\005\r\000\000\000\000*\007\n\005\r\000\000\000\0000\n8\350\007`\005j\005\r\000\000 Ar\005\r\000\000zCz\005\r\244p}?\250\001\r"
    }
  }
}
node {
  name: "ToInt32_3/x"
  op: "Const"
  input: "^probabilities"
  device: "/device:CPU:0"
  attr {
    key: "dtype"
    value {
      type: DT_INT32
    }
  }
  attr {
    key: "value"
    value {
      tensor {
        dtype: DT_INT32
        tensor_shape {
          dim {
            size: 1
          }
        }
        int_val: 0
      }
    }
  }
}
node {
  name: "TraverseTreeV4_3/sparse_input_indices"
  op: "Const"
  input: "^probabilities"
  device: "/device:CPU:0"
  attr {
    key: "dtype"
    value {
      type: DT_INT64
    }
  }
  attr {
    key: "value"
    value {
      tensor {
        dtype: DT_INT64
        tensor_shape {
          dim {
          }
        }
      }
    }
  }
}
node {
  name: "TraverseTreeV4_3/sparse_input_values"
  op: "Const"
  input: "^probabilities"
  device: "/device:CPU:0"
  attr {
    key: "dtype"
    value {
      type: DT_FLOAT
    }
  }
  attr {
    key: "value"
    value {
      tensor {
        dtype: DT_FLOAT
        tensor_shape {
          dim {
          }
        }
      }
    }
  }
}
node {
  name: "TraverseTreeV4_3/sparse_input_shape"
  op: "Const"
  input: "^probabilities"
  device: "/device:CPU:0"
  attr {
    key: "dtype"
    value {
      type: DT_INT64
    }
  }
  attr {
    key: "value"
    value {
      tensor {
        dtype: DT_INT64
        tensor_shape {
          dim {
          }
        }
      }
    }
  }
}
node {
  name: "TraverseTreeV4_3"
  op: "TraverseTreeV4"
  input: "tree-3"
  input: "concat_1"
  input: "TraverseTreeV4_3/sparse_input_indices"
  input: "TraverseTreeV4_3/sparse_input_values"
  input: "TraverseTreeV4_3/sparse_input_shape"
  device: "/device:CPU:0"
  attr {
    key: "input_spec"
    value {
      s: "dense_features_size: 13 dense: [{name: left_sensors_pct original_type: 0 size: 1}{name: plank_1_com_y original_type: 0 size: 1}{name: plank_1_std original_type: 0 size: 1}{name: plank_2_com_y original_type: 0 size: 1}{name: plank_2_std original_type: 0 size: 1}{name: plank_3_com_y original_type: 0 size: 1}{name: plank_3_dev_bucket original_type: 0 size: 1}{name: plank_3_std original_type: 0 size: 1}{name: plank_4_com_y original_type: 0 size: 1}{name: plank_4_dev_bucket original_type: 0 size: 1}{name: plank_4_std original_type: 0 size: 1}{name: plank_4_wrt_3_2 original_type: 0 size: 1}{name: y_errors original_type: 0 size: 1}] sparse: []"
    }
  }
  attr {
    key: "params"
    value {
      s: "\"\007\n\005\r\000\000\000\000*\007\n\005\r\000\000\000\0000\n8\350\007`\005j\005\r\000\000 Ar\005\r\000\000zCz\005\r\244p}?\250\001\r"
    }
  }
}
node {
  name: "UpdateModelV4_3/input_weights"
  op: "Const"
  input: "^probabilities"
  device: "/device:CPU:0"
  attr {
    key: "dtype"
    value {
      type: DT_FLOAT
    }
  }
  attr {
    key: "value"
    value {
      tensor {
        dtype: DT_FLOAT
        tensor_shape {
          dim {
          }
        }
      }
    }
  }
}
node {
  name: "UpdateModelV4_3"
  op: "UpdateModelV4"
  input: "tree-3"
  input: "TraverseTreeV4_3"
  input: "ToFloat_1"
  input: "UpdateModelV4_3/input_weights"
  device: "/device:CPU:0"
  attr {
    key: "params"
    value {
      s: "\"\007\n\005\r\000\000\000\000*\007\n\005\r\000\000\000\0000\n8\350\007`\005j\005\r\000\000 Ar\005\r\000\000zCz\005\r\244p}?\250\001\r"
    }
  }
}
node {
  name: "ProcessInputV4_3/sparse_input_indices"
  op: "Const"
  input: "^probabilities"
  device: "/device:CPU:0"
  attr {
    key: "dtype"
    value {
      type: DT_INT64
    }
  }
  attr {
    key: "value"
    value {
      tensor {
        dtype: DT_INT64
        tensor_shape {
          dim {
          }
        }
      }
    }
  }
}
node {
  name: "ProcessInputV4_3/sparse_input_values"
  op: "Const"
  input: "^probabilities"
  device: "/device:CPU:0"
  attr {
    key: "dtype"
    value {
      type: DT_FLOAT
    }
  }
  attr {
    key: "value"
    value {
      tensor {
        dtype: DT_FLOAT
        tensor_shape {
          dim {
          }
        }
      }
    }
  }
}
node {
  name: "ProcessInputV4_3/sparse_input_shape"
  op: "Const"
  input: "^probabilities"
  device: "/device:CPU:0"
  attr {
    key: "dtype"
    value {
      type: DT_INT64
    }
  }
  attr {
    key: "value"
    value {
      tensor {
        dtype: DT_INT64
        tensor_shape {
          dim {
          }
        }
      }
    }
  }
}
node {
  name: "ProcessInputV4_3/input_weights"
  op: "Const"
  input: "^probabilities"
  device: "/device:CPU:0"
  attr {
    key: "dtype"
    value {
      type: DT_FLOAT
    }
  }
  attr {
    key: "value"
    value {
      tensor {
        dtype: DT_FLOAT
        tensor_shape {
          dim {
          }
        }
      }
    }
  }
}
node {
  name: "ProcessInputV4_3"
  op: "ProcessInputV4"
  input: "tree-3"
  input: "stats-3"
  input: "concat_1"
  input: "ProcessInputV4_3/sparse_input_indices"
  input: "ProcessInputV4_3/sparse_input_values"
  input: "ProcessInputV4_3/sparse_input_shape"
  input: "ToFloat_1"
  input: "ProcessInputV4_3/input_weights"
  input: "TraverseTreeV4_3"
  device: "/device:CPU:0"
  attr {
    key: "input_spec"
    value {
      s: "dense_features_size: 13 dense: [{name: left_sensors_pct original_type: 0 size: 1}{name: plank_1_com_y original_type: 0 size: 1}{name: plank_1_std original_type: 0 size: 1}{name: plank_2_com_y original_type: 0 size: 1}{name: plank_2_std original_type: 0 size: 1}{name: plank_3_com_y original_type: 0 size: 1}{name: plank_3_dev_bucket original_type: 0 size: 1}{name: plank_3_std original_type: 0 size: 1}{name: plank_4_com_y original_type: 0 size: 1}{name: plank_4_dev_bucket original_type: 0 size: 1}{name: plank_4_std original_type: 0 size: 1}{name: plank_4_wrt_3_2 original_type: 0 size: 1}{name: y_errors original_type: 0 size: 1}] sparse: []"
    }
  }
  attr {
    key: "params"
    value {
      s: "\"\007\n\005\r\000\000\000\000*\007\n\005\r\000\000\000\0000\n8\350\007`\005j\005\r\000\000 Ar\005\r\000\000zCz\005\r\244p}?\250\001\r"
    }
  }
  attr {
    key: "random_seed"
    value {
      i: 0
    }
  }
}
node {
  name: "GrowTreeV4_3"
  op: "GrowTreeV4"
  input: "tree-3"
  input: "stats-3"
  input: "ProcessInputV4_3"
  input: "^UpdateModelV4_3"
  device: "/device:CPU:0"
  attr {
    key: "params"
    value {
      s: "\"\007\n\005\r\000\000\000\000*\007\n\005\r\000\000\000\0000\n8\350\007`\005j\005\r\000\000 Ar\005\r\000\000zCz\005\r\244p}?\250\001\r"
    }
  }
}
node {
  name: "ToInt32_4/x"
  op: "Const"
  input: "^probabilities"
  device: "/device:CPU:0"
  attr {
    key: "dtype"
    value {
      type: DT_INT32
    }
  }
  attr {
    key: "value"
    value {
      tensor {
        dtype: DT_INT32
        tensor_shape {
          dim {
            size: 1
          }
        }
        int_val: 0
      }
    }
  }
}
node {
  name: "TraverseTreeV4_4/sparse_input_indices"
  op: "Const"
  input: "^probabilities"
  device: "/device:CPU:0"
  attr {
    key: "dtype"
    value {
      type: DT_INT64
    }
  }
  attr {
    key: "value"
    value {
      tensor {
        dtype: DT_INT64
        tensor_shape {
          dim {
          }
        }
      }
    }
  }
}
node {
  name: "TraverseTreeV4_4/sparse_input_values"
  op: "Const"
  input: "^probabilities"
  device: "/device:CPU:0"
  attr {
    key: "dtype"
    value {
      type: DT_FLOAT
    }
  }
  attr {
    key: "value"
    value {
      tensor {
        dtype: DT_FLOAT
        tensor_shape {
          dim {
          }
        }
      }
    }
  }
}
node {
  name: "TraverseTreeV4_4/sparse_input_shape"
  op: "Const"
  input: "^probabilities"
  device: "/device:CPU:0"
  attr {
    key: "dtype"
    value {
      type: DT_INT64
    }
  }
  attr {
    key: "value"
    value {
      tensor {
        dtype: DT_INT64
        tensor_shape {
          dim {
          }
        }
      }
    }
  }
}
node {
  name: "TraverseTreeV4_4"
  op: "TraverseTreeV4"
  input: "tree-4"
  input: "concat_1"
  input: "TraverseTreeV4_4/sparse_input_indices"
  input: "TraverseTreeV4_4/sparse_input_values"
  input: "TraverseTreeV4_4/sparse_input_shape"
  device: "/device:CPU:0"
  attr {
    key: "input_spec"
    value {
      s: "dense_features_size: 13 dense: [{name: left_sensors_pct original_type: 0 size: 1}{name: plank_1_com_y original_type: 0 size: 1}{name: plank_1_std original_type: 0 size: 1}{name: plank_2_com_y original_type: 0 size: 1}{name: plank_2_std original_type: 0 size: 1}{name: plank_3_com_y original_type: 0 size: 1}{name: plank_3_dev_bucket original_type: 0 size: 1}{name: plank_3_std original_type: 0 size: 1}{name: plank_4_com_y original_type: 0 size: 1}{name: plank_4_dev_bucket original_type: 0 size: 1}{name: plank_4_std original_type: 0 size: 1}{name: plank_4_wrt_3_2 original_type: 0 size: 1}{name: y_errors original_type: 0 size: 1}] sparse: []"
    }
  }
  attr {
    key: "params"
    value {
      s: "\"\007\n\005\r\000\000\000\000*\007\n\005\r\000\000\000\0000\n8\350\007`\005j\005\r\000\000 Ar\005\r\000\000zCz\005\r\244p}?\250\001\r"
    }
  }
}
node {
  name: "UpdateModelV4_4/input_weights"
  op: "Const"
  input: "^probabilities"
  device: "/device:CPU:0"
  attr {
    key: "dtype"
    value {
      type: DT_FLOAT
    }
  }
  attr {
    key: "value"
    value {
      tensor {
        dtype: DT_FLOAT
        tensor_shape {
          dim {
          }
        }
      }
    }
  }
}
node {
  name: "UpdateModelV4_4"
  op: "UpdateModelV4"
  input: "tree-4"
  input: "TraverseTreeV4_4"
  input: "ToFloat_1"
  input: "UpdateModelV4_4/input_weights"
  device: "/device:CPU:0"
  attr {
    key: "params"
    value {
      s: "\"\007\n\005\r\000\000\000\000*\007\n\005\r\000\000\000\0000\n8\350\007`\005j\005\r\000\000 Ar\005\r\000\000zCz\005\r\244p}?\250\001\r"
    }
  }
}
node {
  name: "ProcessInputV4_4/sparse_input_indices"
  op: "Const"
  input: "^probabilities"
  device: "/device:CPU:0"
  attr {
    key: "dtype"
    value {
      type: DT_INT64
    }
  }
  attr {
    key: "value"
    value {
      tensor {
        dtype: DT_INT64
        tensor_shape {
          dim {
          }
        }
      }
    }
  }
}
node {
  name: "ProcessInputV4_4/sparse_input_values"
  op: "Const"
  input: "^probabilities"
  device: "/device:CPU:0"
  attr {
    key: "dtype"
    value {
      type: DT_FLOAT
    }
  }
  attr {
    key: "value"
    value {
      tensor {
        dtype: DT_FLOAT
        tensor_shape {
          dim {
          }
        }
      }
    }
  }
}
node {
  name: "ProcessInputV4_4/sparse_input_shape"
  op: "Const"
  input: "^probabilities"
  device: "/device:CPU:0"
  attr {
    key: "dtype"
    value {
      type: DT_INT64
    }
  }
  attr {
    key: "value"
    value {
      tensor {
        dtype: DT_INT64
        tensor_shape {
          dim {
          }
        }
      }
    }
  }
}
node {
  name: "ProcessInputV4_4/input_weights"
  op: "Const"
  input: "^probabilities"
  device: "/device:CPU:0"
  attr {
    key: "dtype"
    value {
      type: DT_FLOAT
    }
  }
  attr {
    key: "value"
    value {
      tensor {
        dtype: DT_FLOAT
        tensor_shape {
          dim {
          }
        }
      }
    }
  }
}
node {
  name: "ProcessInputV4_4"
  op: "ProcessInputV4"
  input: "tree-4"
  input: "stats-4"
  input: "concat_1"
  input: "ProcessInputV4_4/sparse_input_indices"
  input: "ProcessInputV4_4/sparse_input_values"
  input: "ProcessInputV4_4/sparse_input_shape"
  input: "ToFloat_1"
  input: "ProcessInputV4_4/input_weights"
  input: "TraverseTreeV4_4"
  device: "/device:CPU:0"
  attr {
    key: "input_spec"
    value {
      s: "dense_features_size: 13 dense: [{name: left_sensors_pct original_type: 0 size: 1}{name: plank_1_com_y original_type: 0 size: 1}{name: plank_1_std original_type: 0 size: 1}{name: plank_2_com_y original_type: 0 size: 1}{name: plank_2_std original_type: 0 size: 1}{name: plank_3_com_y original_type: 0 size: 1}{name: plank_3_dev_bucket original_type: 0 size: 1}{name: plank_3_std original_type: 0 size: 1}{name: plank_4_com_y original_type: 0 size: 1}{name: plank_4_dev_bucket original_type: 0 size: 1}{name: plank_4_std original_type: 0 size: 1}{name: plank_4_wrt_3_2 original_type: 0 size: 1}{name: y_errors original_type: 0 size: 1}] sparse: []"
    }
  }
  attr {
    key: "params"
    value {
      s: "\"\007\n\005\r\000\000\000\000*\007\n\005\r\000\000\000\0000\n8\350\007`\005j\005\r\000\000 Ar\005\r\000\000zCz\005\r\244p}?\250\001\r"
    }
  }
  attr {
    key: "random_seed"
    value {
      i: 0
    }
  }
}
node {
  name: "GrowTreeV4_4"
  op: "GrowTreeV4"
  input: "tree-4"
  input: "stats-4"
  input: "ProcessInputV4_4"
  input: "^UpdateModelV4_4"
  device: "/device:CPU:0"
  attr {
    key: "params"
    value {
      s: "\"\007\n\005\r\000\000\000\000*\007\n\005\r\000\000\000\0000\n8\350\007`\005j\005\r\000\000 Ar\005\r\000\000zCz\005\r\244p}?\250\001\r"
    }
  }
}
node {
  name: "ToInt32_5/x"
  op: "Const"
  input: "^probabilities"
  device: "/device:CPU:0"
  attr {
    key: "dtype"
    value {
      type: DT_INT32
    }
  }
  attr {
    key: "value"
    value {
      tensor {
        dtype: DT_INT32
        tensor_shape {
          dim {
            size: 1
          }
        }
        int_val: 0
      }
    }
  }
}
node {
  name: "TraverseTreeV4_5/sparse_input_indices"
  op: "Const"
  input: "^probabilities"
  device: "/device:CPU:0"
  attr {
    key: "dtype"
    value {
      type: DT_INT64
    }
  }
  attr {
    key: "value"
    value {
      tensor {
        dtype: DT_INT64
        tensor_shape {
          dim {
          }
        }
      }
    }
  }
}
node {
  name: "TraverseTreeV4_5/sparse_input_values"
  op: "Const"
  input: "^probabilities"
  device: "/device:CPU:0"
  attr {
    key: "dtype"
    value {
      type: DT_FLOAT
    }
  }
  attr {
    key: "value"
    value {
      tensor {
        dtype: DT_FLOAT
        tensor_shape {
          dim {
          }
        }
      }
    }
  }
}
node {
  name: "TraverseTreeV4_5/sparse_input_shape"
  op: "Const"
  input: "^probabilities"
  device: "/device:CPU:0"
  attr {
    key: "dtype"
    value {
      type: DT_INT64
    }
  }
  attr {
    key: "value"
    value {
      tensor {
        dtype: DT_INT64
        tensor_shape {
          dim {
          }
        }
      }
    }
  }
}
node {
  name: "TraverseTreeV4_5"
  op: "TraverseTreeV4"
  input: "tree-5"
  input: "concat_1"
  input: "TraverseTreeV4_5/sparse_input_indices"
  input: "TraverseTreeV4_5/sparse_input_values"
  input: "TraverseTreeV4_5/sparse_input_shape"
  device: "/device:CPU:0"
  attr {
    key: "input_spec"
    value {
      s: "dense_features_size: 13 dense: [{name: left_sensors_pct original_type: 0 size: 1}{name: plank_1_com_y original_type: 0 size: 1}{name: plank_1_std original_type: 0 size: 1}{name: plank_2_com_y original_type: 0 size: 1}{name: plank_2_std original_type: 0 size: 1}{name: plank_3_com_y original_type: 0 size: 1}{name: plank_3_dev_bucket original_type: 0 size: 1}{name: plank_3_std original_type: 0 size: 1}{name: plank_4_com_y original_type: 0 size: 1}{name: plank_4_dev_bucket original_type: 0 size: 1}{name: plank_4_std original_type: 0 size: 1}{name: plank_4_wrt_3_2 original_type: 0 size: 1}{name: y_errors original_type: 0 size: 1}] sparse: []"
    }
  }
  attr {
    key: "params"
    value {
      s: "\"\007\n\005\r\000\000\000\000*\007\n\005\r\000\000\000\0000\n8\350\007`\005j\005\r\000\000 Ar\005\r\000\000zCz\005\r\244p}?\250\001\r"
    }
  }
}
node {
  name: "UpdateModelV4_5/input_weights"
  op: "Const"
  input: "^probabilities"
  device: "/device:CPU:0"
  attr {
    key: "dtype"
    value {
      type: DT_FLOAT
    }
  }
  attr {
    key: "value"
    value {
      tensor {
        dtype: DT_FLOAT
        tensor_shape {
          dim {
          }
        }
      }
    }
  }
}
node {
  name: "UpdateModelV4_5"
  op: "UpdateModelV4"
  input: "tree-5"
  input: "TraverseTreeV4_5"
  input: "ToFloat_1"
  input: "UpdateModelV4_5/input_weights"
  device: "/device:CPU:0"
  attr {
    key: "params"
    value {
      s: "\"\007\n\005\r\000\000\000\000*\007\n\005\r\000\000\000\0000\n8\350\007`\005j\005\r\000\000 Ar\005\r\000\000zCz\005\r\244p}?\250\001\r"
    }
  }
}
node {
  name: "ProcessInputV4_5/sparse_input_indices"
  op: "Const"
  input: "^probabilities"
  device: "/device:CPU:0"
  attr {
    key: "dtype"
    value {
      type: DT_INT64
    }
  }
  attr {
    key: "value"
    value {
      tensor {
        dtype: DT_INT64
        tensor_shape {
          dim {
          }
        }
      }
    }
  }
}
node {
  name: "ProcessInputV4_5/sparse_input_values"
  op: "Const"
  input: "^probabilities"
  device: "/device:CPU:0"
  attr {
    key: "dtype"
    value {
      type: DT_FLOAT
    }
  }
  attr {
    key: "value"
    value {
      tensor {
        dtype: DT_FLOAT
        tensor_shape {
          dim {
          }
        }
      }
    }
  }
}
node {
  name: "ProcessInputV4_5/sparse_input_shape"
  op: "Const"
  input: "^probabilities"
  device: "/device:CPU:0"
  attr {
    key: "dtype"
    value {
      type: DT_INT64
    }
  }
  attr {
    key: "value"
    value {
      tensor {
        dtype: DT_INT64
        tensor_shape {
          dim {
          }
        }
      }
    }
  }
}
node {
  name: "ProcessInputV4_5/input_weights"
  op: "Const"
  input: "^probabilities"
  device: "/device:CPU:0"
  attr {
    key: "dtype"
    value {
      type: DT_FLOAT
    }
  }
  attr {
    key: "value"
    value {
      tensor {
        dtype: DT_FLOAT
        tensor_shape {
          dim {
          }
        }
      }
…
  device: "/device:CPU:0"
  attr {
    key: "dtype"
    value {
      type: DT_FLOAT
    }
  }
  attr {
    key: "value"
    value {
      tensor {
        dtype: DT_FLOAT
        tensor_shape {
          dim {
          }
        }
      }
    }
  }
}
node {
  name: "ProcessInputV4_21"
  op: "ProcessInputV4"
  input: "tree-0_2"
  input: "stats-0_2"
  input: "Placeholder_5"
  input: "ProcessInputV4_21/sparse_input_indices"
  input: "ProcessInputV4_21/sparse_input_values"
  input: "ProcessInputV4_21/sparse_input_shape"
  input: "ToFloat_5"
  input: "ProcessInputV4_21/input_weights"
  input: "TraverseTreeV4_22"
  device: "/device:CPU:0"
  attr {
    key: "input_spec"
    value {
      s: "dense_features_size: 2 dense: [{name: dense_features original_type: 0 size: 2}] sparse: []"
    }
  }
  attr {
    key: "params"
    value {
      s: "\"\007\n\005\r\000\000\000\000*\007\n\005\r\000\000\000\0000\n8\350\007`\005j\005\r\000\000 Ar\005\r\000\000zCz\005\r\244p}?\250\001\r"
    }
  }
  attr {
    key: "random_seed"
    value {
      i: 0
    }
  }
}
node {
  name: "GrowTreeV4_21"
  op: "GrowTreeV4"
  input: "tree-0_2"
  input: "stats-0_2"
  input: "ProcessInputV4_21"
  input: "^UpdateModelV4_21"
  device: "/device:CPU:0"
  attr {
    key: "params"
    value {
      s: "\"\007\n\005\r\000\000\000\000*\007\n\005\r\000\000\000\0000\n8\350\007`\005j\005\r\000\000 Ar\005\r\000\000zCz\005\r\244p}?\250\001\r"
    }
  }
}
node {
  name: "ToInt32_12/x"
  op: "Const"
  device: "/device:CPU:0"
  attr {
    key: "dtype"
    value {
      type: DT_INT32
    }
  }
  attr {
    key: "value"
    value {
      tensor {
        dtype: DT_INT32
        tensor_shape {
          dim {
            size: 1
          }
        }
        int_val: 0
      }
    }
  }
}
node {
  name: "TraverseTreeV4_23/sparse_input_indices"
  op: "Const"
  device: "/device:CPU:0"
  attr {
    key: "dtype"
    value {
      type: DT_INT64
    }
  }
  attr {
    key: "value"
    value {
      tensor {
        dtype: DT_INT64
        tensor_shape {
          dim {
          }
        }
      }
    }
  }
}
node {
  name: "TraverseTreeV4_23/sparse_input_values"
  op: "Const"
  device: "/device:CPU:0"
  attr {
    key: "dtype"
    value {
      type: DT_FLOAT
    }
  }
  attr {
    key: "value"
    value {
      tensor {
        dtype: DT_FLOAT
        tensor_shape {
          dim {
          }
        }
      }
    }
  }
}
node {
  name: "TraverseTreeV4_23/sparse_input_shape"
  op: "Const"
  device: "/device:CPU:0"
  attr {
    key: "dtype"
    value {
      type: DT_INT64
    }
  }
  attr {
    key: "value"
    value {
      tensor {
        dtype: DT_INT64
        tensor_shape {
          dim {
          }
        }
      }
    }
  }
}
node {
  name: "TraverseTreeV4_23"
  op: "TraverseTreeV4"
  input: "tree-1_2"
  input: "Placeholder_5"
  input: "TraverseTreeV4_23/sparse_input_indices"
  input: "TraverseTreeV4_23/sparse_input_values"
  input: "TraverseTreeV4_23/sparse_input_shape"
  device: "/device:CPU:0"
  attr {
    key: "input_spec"
    value {
      s: "dense_features_size: 2 dense: [{name: dense_features original_type: 0 size: 2}] sparse: []"
    }
  }
  attr {
    key: "params"
    value {
      s: "\"\007\n\005\r\000\000\000\000*\007\n\005\r\000\000\000\0000\n8\350\007`\005j\005\r\000\000 Ar\005\r\000\000zCz\005\r\244p}?\250\001\r"
    }
  }
}
node {
  name: "UpdateModelV4_22/input_weights"
  op: "Const"
  device: "/device:CPU:0"
  attr {
    key: "dtype"
    value {
      type: DT_FLOAT
    }
  }
  attr {
    key: "value"
    value {
      tensor {
        dtype: DT_FLOAT
        tensor_shape {
          dim {
          }
        }
      }
    }
  }
}
node {
  name: "UpdateModelV4_22"
  op: "UpdateModelV4"
  input: "tree-1_2"
  input: "TraverseTreeV4_23"
  input: "ToFloat_5"
  input: "UpdateModelV4_22/input_weights"
  device: "/device:CPU:0"
  attr {
    key: "params"
    value {
      s: "\"\007\n\005\r\000\000\000\000*\007\n\005\r\000\000\000\0000\n8\350\007`\005j\005\r\000\000 Ar\005\r\000\000zCz\005\r\244p}?\250\001\r"
    }
  }
}
node {
  name: "ProcessInputV4_22/sparse_input_indices"
  op: "Const"
  device: "/device:CPU:0"
  attr {
    key: "dtype"
    value {
      type: DT_INT64
    }
  }
  attr {
    key: "value"
    value {
      tensor {
        dtype: DT_INT64
        tensor_shape {
          dim {
          }
        }
      }
    }
  }
}
node {
  name: "ProcessInputV4_22/sparse_input_values"
  op: "Const"
  device: "/device:CPU:0"
  attr {
    key: "dtype"
    value {
      type: DT_FLOAT
    }
  }
  attr {
    key: "value"
    value {
      tensor {
        dtype: DT_FLOAT
        tensor_shape {
          dim {
          }
        }
      }
    }
  }
}
node {
  name: "ProcessInputV4_22/sparse_input_shape"
  op: "Const"
  device: "/device:CPU:0"
  attr {
    key: "dtype"
    value {
      type: DT_INT64
    }
  }
  attr {
    key: "value"
    value {
      tensor {
        dtype: DT_INT64
        tensor_shape {
          dim {
          }
        }
      }
    }
  }
}
node {
  name: "ProcessInputV4_22/input_weights"
  op: "Const"
  device: "/device:CPU:0"
  attr {
    key: "dtype"
    value {
      type: DT_FLOAT
    }
  }
  attr {
    key: "value"
    value {
      tensor {
        dtype: DT_FLOAT
        tensor_shape {
          dim {
          }
        }
      }
    }
  }
}
node {
  name: "ProcessInputV4_22"
  op: "ProcessInputV4"
  input: "tree-1_2"
  input: "stats-1_2"
  input: "Placeholder_5"
  input: "ProcessInputV4_22/sparse_input_indices"
  input: "ProcessInputV4_22/sparse_input_values"
  input: "ProcessInputV4_22/sparse_input_shape"
  input: "ToFloat_5"
  input: "ProcessInputV4_22/input_weights"
  input: "TraverseTreeV4_23"
  device: "/device:CPU:0"
  attr {
    key: "input_spec"
    value {
      s: "dense_features_size: 2 dense: [{name: dense_features original_type: 0 size: 2}] sparse: []"
    }
  }
  attr {
    key: "params"
    value {
      s: "\"\007\n\005\r\000\000\000\000*\007\n\005\r\000\000\000\0000\n8\350\007`\005j\005\r\000\000 Ar\005\r\000\000zCz\005\r\244p}?\250\001\r"
    }
  }
  attr {
    key: "random_seed"
    value {
      i: 0
    }
  }
}
node {
  name: "GrowTreeV4_22"
  op: "GrowTreeV4"
  input: "tree-1_2"
  input: "stats-1_2"
  input: "ProcessInputV4_22"
  input: "^UpdateModelV4_22"
  device: "/device:CPU:0"
  attr {
    key: "params"
    value {
      s: "\"\007\n\005\r\000\000\000\000*\007\n\005\r\000\000\000\0000\n8\350\007`\005j\005\r\000\000 Ar\005\r\000\000zCz\005\r\244p}?\250\001\r"
    }
  }
}
node {
  name: "ToInt32_13/x"
  op: "Const"
  device: "/device:CPU:0"
  attr {
    key: "dtype"
    value {
      type: DT_INT32
    }
  }
  attr {
    key: "value"
    value {
      tensor {
        dtype: DT_INT32
        tensor_shape {
          dim {
            size: 1
          }
        }
        int_val: 0
      }
    }
  }
}
node {
  name: "TraverseTreeV4_24/sparse_input_indices"
  op: "Const"
  device: "/device:CPU:0"
  attr {
    key: "dtype"
    value {
      type: DT_INT64
    }
  }
  attr {
    key: "value"
    value {
      tensor {
        dtype: DT_INT64
        tensor_shape {
          dim {
          }
        }
      }
    }
  }
}
node {
  name: "TraverseTreeV4_24/sparse_input_values"
  op: "Const"
  device: "/device:CPU:0"
  attr {
    key: "dtype"
    value {
      type: DT_FLOAT
    }
  }
  attr {
    key: "value"
    value {
      tensor {
        dtype: DT_FLOAT
        tensor_shape {
          dim {
          }
        }
      }
    }
  }
}
node {
  name: "TraverseTreeV4_24/sparse_input_shape"
  op: "Const"
  device: "/device:CPU:0"
  attr {
    key: "dtype"
    value {
      type: DT_INT64
    }
  }
  attr {
    key: "value"
    value {
      tensor {
        dtype: DT_INT64
        tensor_shape {
          dim {
          }
        }
      }
    }
  }
}
node {
  name: "TraverseTreeV4_24"
  op: "TraverseTreeV4"
  input: "tree-2_2"
  input: "Placeholder_5"
  input: "TraverseTreeV4_24/sparse_input_indices"
  input: "TraverseTreeV4_24/sparse_input_values"
  input: "TraverseTreeV4_24/sparse_input_shape"
  device: "/device:CPU:0"
  attr {
    key: "input_spec"
    value {
      s: "dense_features_size: 2 dense: [{name: dense_features original_type: 0 size: 2}] sparse: []"
    }
  }
  attr {
    key: "params"
    value {
      s: "\"\007\n\005\r\000\000\000\000*\007\n\005\r\000\000\000\0000\n8\350\007`\005j\005\r\000\000 Ar\005\r\000\000zCz\005\r\244p}?\250\001\r"
    }
  }
}
node {
  name: "UpdateModelV4_23/input_weights"
  op: "Const"
  device: "/device:CPU:0"
  attr {
    key: "dtype"
    value {
      type: DT_FLOAT
    }
  }
  attr {
    key: "value"
    value {
      tensor {
        dtype: DT_FLOAT
        tensor_shape {
          dim {
          }
        }
      }
    }
  }
}
node {
  name: "UpdateModelV4_23"
  op: "UpdateModelV4"
  input: "tree-2_2"
  input: "TraverseTreeV4_24"
  input: "ToFloat_5"
  input: "UpdateModelV4_23/input_weights"
  device: "/device:CPU:0"
  attr {
    key: "params"
    value {
      s: "\"\007\n\005\r\000\000\000\000*\007\n\005\r\000\000\000\0000\n8\350\007`\005j\005\r\000\000 Ar\005\r\000\000zCz\005\r\244p}?\250\001\r"
    }
  }
}
node {
  name: "ProcessInputV4_23/sparse_input_indices"
  op: "Const"
  device: "/device:CPU:0"
  attr {
    key: "dtype"
    value {
      type: DT_INT64
    }
  }
  attr {
    key: "value"
    value {
      tensor {
        dtype: DT_INT64
        tensor_shape {
          dim {
          }
        }
      }
    }
  }
}
node {
  name: "ProcessInputV4_23/sparse_input_values"
  op: "Const"
  device: "/device:CPU:0"
  attr {
    key: "dtype"
    value {
      type: DT_FLOAT
    }
  }
  attr {
    key: "value"
    value {
      tensor {
        dtype: DT_FLOAT
        tensor_shape {
          dim {
          }
        }
      }
    }
  }
}
node {
  name: "ProcessInputV4_23/sparse_input_shape"
  op: "Const"
  device: "/device:CPU:0"
  attr {
    key: "dtype"
    value {
      type: DT_INT64
    }
  }
  attr {
    key: "value"
    value {
      tensor {
        dtype: DT_INT64
        tensor_shape {
          dim {
          }
        }
      }
    }
  }
}
node {
  name: "ProcessInputV4_23/input_weights"
  op: "Const"
  device: "/device:CPU:0"
  attr {
    key: "dtype"
    value {
      type: DT_FLOAT
    }
  }
  attr {
    key: "value"
    value {
      tensor {
        dtype: DT_FLOAT
        tensor_shape {
          dim {
          }
        }
      }
    }
  }
}
node {
  name: "ProcessInputV4_23"
  op: "ProcessInputV4"
  input: "tree-2_2"
  input: "stats-2_2"
  input: "Placeholder_5"
  input: "ProcessInputV4_23/sparse_input_indices"
  input: "ProcessInputV4_23/sparse_input_values"
  input: "ProcessInputV4_23/sparse_input_shape"
  input: "ToFloat_5"
  input: "ProcessInputV4_23/input_weights"
  input: "TraverseTreeV4_24"
  device: "/device:CPU:0"
  attr {
    key: "input_spec"
    value {
      s: "dense_features_size: 2 dense: [{name: dense_features original_type: 0 size: 2}] sparse: []"
    }
  }
  attr {
    key: "params"
    value {
      s: "\"\007\n\005\r\000\000\000\000*\007\n\005\r\000\000\000\0000\n8\350\007`\005j\005\r\000\000 Ar\005\r\000\000zCz\005\r\244p}?\250\001\r"
    }
  }
  attr {
    key: "random_seed"
    value {
      i: 0
    }
  }
}
node {
  name: "GrowTreeV4_23"
  op: "GrowTreeV4"
  input: "tree-2_2"
  input: "stats-2_2"
  input: "ProcessInputV4_23"
  input: "^UpdateModelV4_23"
  device: "/device:CPU:0"
  attr {
    key: "params"
    value {
      s: "\"\007\n\005\r\000\000\000\000*\007\n\005\r\000\000\000\0000\n8\350\007`\005j\005\r\000\000 Ar\005\r\000\000zCz\005\r\244p}?\250\001\r"
    }
  }
}
node {
  name: "ToInt32_14/x"
  op: "Const"
  device: "/device:CPU:0"
  attr {
    key: "dtype"
    value {
      type: DT_INT32
    }
  }
  attr {
    key: "value"
    value {
      tensor {
        dtype: DT_INT32
        tensor_shape {
          dim {
            size: 1
          }
        }
        int_val: 0
      }
    }
  }
}
node {
  name: "TraverseTreeV4_25/sparse_input_indices"
  op: "Const"
  device: "/device:CPU:0"
  attr {
    key: "dtype"
    value {
      type: DT_INT64
    }
  }
  attr {
    key: "value"
    value {
      tensor {
        dtype: DT_INT64
        tensor_shape {
          dim {
          }
        }
      }
    }
  }
}
node {
  name: "TraverseTreeV4_25/sparse_input_values"
  op: "Const"
  device: "/device:CPU:0"
  attr {
    key: "dtype"
    value {
      type: DT_FLOAT
    }
  }
  attr {
    key: "value"
    value {
      tensor {
        dtype: DT_FLOAT
        tensor_shape {
          dim {
          }
        }
      }
    }
  }
}
node {
  name: "TraverseTreeV4_25/sparse_input_shape"
  op: "Const"
  device: "/device:CPU:0"
  attr {
    key: "dtype"
    value {
      type: DT_INT64
    }
  }
  attr {
    key: "value"
    value {
      tensor {
        dtype: DT_INT64
        tensor_shape {
          dim {
          }
        }
      }
    }
  }
}
node {
  name: "TraverseTreeV4_25"
  op: "TraverseTreeV4"
  input: "tree-3_2"
  input: "Placeholder_5"
  input: "TraverseTreeV4_25/sparse_input_indices"
  input: "TraverseTreeV4_25/sparse_input_values"
  input: "TraverseTreeV4_25/sparse_input_shape"
  device: "/device:CPU:0"
  attr {
    key: "input_spec"
    value {
      s: "dense_features_size: 2 dense: [{name: dense_features original_type: 0 size: 2}] sparse: []"
    }
  }
  attr {
    key: "params"
    value {
      s: "\"\007\n\005\r\000\000\000\000*\007\n\005\r\000\000\000\0000\n8\350\007`\005j\005\r\000\000 Ar\005\r\000\000zCz\005\r\244p}?\250\001\r"
    }
  }
}
node {
  name: "UpdateModelV4_24/input_weights"
  op: "Const"
  device: "/device:CPU:0"
  attr {
    key: "dtype"
    value {
      type: DT_FLOAT
    }
  }
  attr {
    key: "value"
    value {
      tensor {
        dtype: DT_FLOAT
        tensor_shape {
          dim {
          }
        }
      }
    }
  }
}
node {
  name: "UpdateModelV4_24"
  op: "UpdateModelV4"
  input: "tree-3_2"
  input: "TraverseTreeV4_25"
  input: "ToFloat_5"
  input: "UpdateModelV4_24/input_weights"
  device: "/device:CPU:0"
  attr {
    key: "params"
    value {
      s: "\"\007\n\005\r\000\000\000\000*\007\n\005\r\000\000\000\0000\n8\350\007`\005j\005\r\000\000 Ar\005\r\000\000zCz\005\r\244p}?\250\001\r"
    }
  }
}
node {
  name: "ProcessInputV4_24/sparse_input_indices"
  op: "Const"
  device: "/device:CPU:0"
  attr {
    key: "dtype"
    value {
      type: DT_INT64
    }
  }
  attr {
    key: "value"
    value {
      tensor {
        dtype: DT_INT64
        tensor_shape {
          dim {
          }
        }
      }
    }
  }
}
node {
  name: "ProcessInputV4_24/sparse_input_values"
  op: "Const"
  device: "/device:CPU:0"
  attr {
    key: "dtype"
    value {
      type: DT_FLOAT
    }
  }
  attr {
    key: "value"
    value {
      tensor {
        dtype: DT_FLOAT
        tensor_shape {
          dim {
          }
        }
      }
    }
  }
}
node {
  name: "ProcessInputV4_24/sparse_input_shape"
  op: "Const"
  device: "/device:CPU:0"
  attr {
    key: "dtype"
    value {
      type: DT_INT64
    }
  }
  attr {
    key: "value"
    value {
      tensor {
        dtype: DT_INT64
        tensor_shape {
          dim {
          }
        }
      }
    }
  }
}
node {
  name: "ProcessInputV4_24/input_weights"
  op: "Const"
  device: "/device:CPU:0"
  attr {
    key: "dtype"
    value {
      type: DT_FLOAT
    }
  }
  attr {
    key: "value"
    value {
      tensor {
        dtype: DT_FLOAT
        tensor_shape {
          dim {
          }
        }
      }
    }
  }
}
node {
  name: "ProcessInputV4_24"
  op: "ProcessInputV4"
  input: "tree-3_2"
  input: "stats-3_2"
  input: "Placeholder_5"
  input: "ProcessInputV4_24/sparse_input_indices"
  input: "ProcessInputV4_24/sparse_input_values"
  input: "ProcessInputV4_24/sparse_input_shape"
  input: "ToFloat_5"
  input: "ProcessInputV4_24/input_weights"
  input: "TraverseTreeV4_25"
  device: "/device:CPU:0"
  attr {
    key: "input_spec"
    value {
      s: "dense_features_size: 2 dense: [{name: dense_features original_type: 0 size: 2}] sparse: []"
    }
  }
  attr {
    key: "params"
    value {
      s: "\"\007\n\005\r\000\000\000\000*\007\n\005\r\000\000\000\0000\n8\350\007`\005j\005\r\000\000 Ar\005\r\000\000zCz\005\r\244p}?\250\001\r"
    }
  }
  attr {
    key: "random_seed"
    value {
      i: 0
    }
  }
}
node {
  name: "GrowTreeV4_24"
  op: "GrowTreeV4"
  input: "tree-3_2"
  input: "stats-3_2"
  input: "ProcessInputV4_24"
  input: "^UpdateModelV4_24"
  device: "/device:CPU:0"
  attr {
    key: "params"
    value {
      s: "\"\007\n\005\r\000\000\000\000*\007\n\005\r\000\000\000\0000\n8\350\007`\005j\005\r\000\000 Ar\005\r\000\000zCz\005\r\244p}?\250\001\r"
    }
  }
}
node {
  name: "ToInt32_15/x"
  op: "Const"
  device: "/device:CPU:0"
  attr {
    key: "dtype"
    value {
      type: DT_INT32
    }
  }
  attr {
    key: "value"
    value {
      tensor {
        dtype: DT_INT32
        tensor_shape {
          dim {
            size: 1
          }
        }
        int_val: 0
      }
    }
  }
}
node {
  name: "TraverseTreeV4_26/sparse_input_indices"
  op: "Const"
  device: "/device:CPU:0"
  attr {
    key: "dtype"
    value {
      type: DT_INT64
    }
  }
  attr {
    key: "value"
    value {
      tensor {
        dtype: DT_INT64
        tensor_shape {
          dim {
          }
        }
      }
    }
  }
}
node {
  name: "TraverseTreeV4_26/sparse_input_values"
  op: "Const"
  device: "/device:CPU:0"
  attr {
    key: "dtype"
    value {
      type: DT_FLOAT
    }
  }
  attr {
    key: "value"
    value {
      tensor {
        dtype: DT_FLOAT
        tensor_shape {
          dim {
          }
        }
      }
    }
  }
}
node {
  name: "TraverseTreeV4_26/sparse_input_shape"
  op: "Const"
  device: "/device:CPU:0"
  attr {
    key: "dtype"
    value {
      type: DT_INT64
    }
  }
  attr {
    key: "value"
    value {
      tensor {
        dtype: DT_INT64
        tensor_shape {
          dim {
          }
        }
      }
    }
  }
}
node {
  name: "TraverseTreeV4_26"
  op: "TraverseTreeV4"
  input: "tree-4_2"
  input: "Placeholder_5"
  input: "TraverseTreeV4_26/sparse_input_indices"
  input: "TraverseTreeV4_26/sparse_input_values"
  input: "TraverseTreeV4_26/sparse_input_shape"
  device: "/device:CPU:0"
  attr {
    key: "input_spec"
    value {
      s: "dense_features_size: 2 dense: [{name: dense_features original_type: 0 size: 2}] sparse: []"
    }
  }
  attr {
    key: "params"
    value {
      s: "\"\007\n\005\r\000\000\000\000*\007\n\005\r\000\000\000\0000\n8\350\007`\005j\005\r\000\000 Ar\005\r\000\000zCz\005\r\244p}?\250\001\r"
    }
  }
}
node {
  name: "UpdateModelV4_25/input_weights"
  op: "Const"
  device: "/device:CPU:0"
  attr {
    key: "dtype"
    value {
      type: DT_FLOAT
    }
  }
  attr {
    key: "value"
    value {
      tensor {
        dtype: DT_FLOAT
        tensor_shape {
          dim {
          }
        }
      }
    }
  }
}
node {
  name: "UpdateModelV4_25"
  op: "UpdateModelV4"
  input: "tree-4_2"
  input: "TraverseTreeV4_26"
  input: "ToFloat_5"
  input: "UpdateModelV4_25/input_weights"
  device: "/device:CPU:0"
  attr {
    key: "params"
    value {
      s: "\"\007\n\005\r\000\000\000\000*\007\n\005\r\000\000\000\0000\n8\350\007`\005j\005\r\000\000 Ar\005\r\000\000zCz\005\r\244p}?\250\001\r"
    }
  }
}
node {
  name: "ProcessInputV4_25/sparse_input_indices"
  op: "Const"
  device: "/device:CPU:0"
  attr {
    key: "dtype"
    value {
      type: DT_INT64
    }
  }
  attr {
    key: "value"
    value {
      tensor {
        dtype: DT_INT64
        tensor_shape {
          dim {
          }
        }
      }
    }
  }
}
node {
  name: "ProcessInputV4_25/sparse_input_values"
  op: "Const"
  device: "/device:CPU:0"
  attr {
    key: "dtype"
    value {
      type: DT_FLOAT
    }
  }
  attr {
    key: "value"
    value {
      tensor {
        dtype: DT_FLOAT
        tensor_shape {
          dim {
          }
        }
      }
    }
  }
}
node {
  name: "ProcessInputV4_25/sparse_input_shape"
  op: "Const"
  device: "/device:CPU:0"
  attr {
    key: "dtype"
    value {
      type: DT_INT64
    }
  }
  attr {
    key: "value"
    value {
      tensor {
        dtype: DT_INT64
        tensor_shape {
          dim {
          }
        }
      }
    }
  }
}
node {
  name: "ProcessInputV4_25/input_weights"
  op: "Const"
  device: "/device:CPU:0"
  attr {
    key: "dtype"
    value {
      type: DT_FLOAT
    }
  }
  attr {
    key: "value"
    value {
      tensor {
        dtype: DT_FLOAT
        tensor_shape {
          dim {
          }
        }
      }
    }
  }
}
node {
  name: "ProcessInputV4_25"
  op: "ProcessInputV4"
  input: "tree-4_2"
  input: "stats-4_2"
  input: "Placeholder_5"
  input: "ProcessInputV4_25/sparse_input_indices"
  input: "ProcessInputV4_25/sparse_input_values"
  input: "ProcessInputV4_25/sparse_input_shape"
  input: "ToFloat_5"
  input: "ProcessInputV4_25/input_weights"
  input: "TraverseTreeV4_26"
  device: "/device:CPU:0"
  attr {
    key: "input_spec"
    value {
      s: "dense_features_size: 2 dense: [{name: dense_features original_type: 0 size: 2}] sparse: []"
    }
  }
  attr {
    key: "params"
    value {
      s: "\"\007\n\005\r\000\000\000\000*\007\n\005\r\000\000\000\0000\n8\350\007`\005j\005\r\000\000 Ar\005\r\000\000zCz\005\r\244p}?\250\001\r"
    }
  }
  attr {
    key: "random_seed"
    value {
      i: 0
    }
  }
}
node {
  name: "GrowTreeV4_25"
  op: "GrowTreeV4"
  input: "tree-4_2"
  input: "stats-4_2"
  input: "ProcessInputV4_25"
  input: "^UpdateModelV4_25"
  device: "/device:CPU:0"
  attr {
    key: "params"
    value {
      s: "\"\007\n\005\r\000\000\000\000*\007\n\005\r\000\000\000\0000\n8\350\007`\005j\005\r\000\000 Ar\005\r\000\000zCz\005\r\244p}?\250\001\r"
    }
  }
}
node {
  name: "ToInt32_16/x"
  op: "Const"
  device: "/device:CPU:0"
  attr {
    key: "dtype"
    value {
      type: DT_INT32
    }
  }
  attr {
    key: "value"
    value {
      tensor {
        dtype: DT_INT32
        tensor_shape {
          dim {
            size: 1
          }
        }
        int_val: 0
      }
    }
  }
}
node {
  name: "TraverseTreeV4_27/sparse_input_indices"
  op: "Const"
  device: "/device:CPU:0"
  attr {
    key: "dtype"
    value {
      type: DT_INT64
    }
  }
  attr {
    key: "value"
    value {
      tensor {
        dtype: DT_INT64
        tensor_shape {
          dim {
          }
        }
      }
    }
  }
}
node {
  name: "TraverseTreeV4_27/sparse_input_values"
  op: "Const"
  device: "/device:CPU:0"
  attr {
    key: "dtype"
    value {
      type: DT_FLOAT
    }
  }
  attr {
    key: "value"
    value {
      tensor {
        dtype: DT_FLOAT
        tensor_shape {
          dim {
          }
        }
      }
    }
  }
}
node {
  name: "TraverseTreeV4_27/sparse_input_shape"
  op: "Const"
  device: "/device:CPU:0"
  attr {
    key: "dtype"
    value {
      type: DT_INT64
    }
  }
  attr {
    key: "value"
    value {
      tensor {
        dtype: DT_INT64
        tensor_shape {
          dim {
          }
        }
      }
    }
  }
}
node {
  name: "TraverseTreeV4_27"
  op: "TraverseTreeV4"
  input: "tree-5_2"
  input: "Placeholder_5"
  input: "TraverseTreeV4_27/sparse_input_indices"
  input: "TraverseTreeV4_27/sparse_input_values"
  input: "TraverseTreeV4_27/sparse_input_shape"
  device: "/device:CPU:0"
  attr {
    key: "input_spec"
    value {
      s: "dense_features_size: 2 dense: [{name: dense_features original_type: 0 size: 2}] sparse: []"
    }
  }
  attr {
    key: "params"
    value {
      s: "\"\007\n\005\r\000\000\000\000*\007\n\005\r\000\000\000\0000\n8\350\007`\005j\005\r\000\000 Ar\005\r\000\000zCz\005\r\244p}?\250\001\r"
    }
  }
}
node {
  name: "UpdateModelV4_26/input_weights"
  op: "Const"
  device: "/device:CPU:0"
  attr {
    key: "dtype"
    value {
      type: DT_FLOAT
    }
  }
  attr {
    key: "value"
    value {
      tensor {
        dtype: DT_FLOAT
        tensor_shape {
          dim {
          }
        }
      }
    }
  }
}
node {
  name: "UpdateModelV4_26"
  op: "UpdateModelV4"
  input: "tree-5_2"
  input: "TraverseTreeV4_27"
  input: "ToFloat_5"
  input: "UpdateModelV4_26/input_weights"
  device: "/device:CPU:0"
  attr {
    key: "params"
    value {
      s: "\"\007\n\005\r\000\000\000\000*\007\n\005\r\000\000\000\0000\n8\350\007`\005j\005\r\000\000 Ar\005\r\000\000zCz\005\r\244p}?\250\001\r"
    }
  }
}
node {
  name: "ProcessInputV4_26/sparse_input_indices"
  op: "Const"
  device: "/device:CPU:0"
  attr {
    key: "dtype"
    value {
      type: DT_INT64
    }
  }
  attr {
    key: "value"
    value {
      tensor {
        dtype: DT_INT64
        tensor_shape {
          dim {
          }
        }
      }
    }
  }
}
node {
  name: "ProcessInputV4_26/sparse_input_values"
  op: "Const"
  device: "/device:CPU:0"
  attr {
    key: "dtype"
    value {
      type: DT_FLOAT
    }
  }
  attr {
    key: "value"
    value {
      tensor {
        dtype: DT_FLOAT
        tensor_shape {
          dim {
          }
        }
      }
    }
  }
}
node {
  name: "ProcessInputV4_26/sparse_input_shape"
  op: "Const"
  device: "/device:CPU:0"
  attr {
    key: "dtype"
    value {
      type: DT_INT64
    }
  }
  attr {
    key: "value"
    value {
      tensor {
        dtype: DT_INT64
        tensor_shape {
          dim {
          }
        }
      }
    }
  }
}
node {
  name: "ProcessInputV4_26/input_weights"
  op: "Const"
  device: "/device:CPU:0"
  attr {
    key: "dtype"
    value {
      type: DT_FLOAT
    }
  }
  attr {
    key: "value"
    value {
      tensor {
        dtype: DT_FLOAT
        tensor_shape {
          dim {
          }
        }
      }
    }
  }
}
node {
  name: "ProcessInputV4_26"
  op: "ProcessInputV4"
  input: "tree-5_2"
  input: "stats-5_2"
  input: "Placeholder_5"
  input: "ProcessInputV4_26/sparse_input_indices"
  input: "ProcessInputV4_26/sparse_input_values"
  input: "ProcessInputV4_26/sparse_input_shape"
  input: "ToFloat_5"
  input: "ProcessInputV4_26/input_weights"
  input: "TraverseTreeV4_27"
  device: "/device:CPU:0"
  attr {
    key: "input_spec"
    value {
      s: "dense_features_size: 2 dense: [{name: dense_features original_type: 0 size: 2}] sparse: []"
    }
  }
  attr {
    key: "params"
    value {
      s: "\"\007\n\005\r\000\000\000\000*\007\n\005\r\000\000\000\0000\n8\350\007`\005j\005\r\000\000 Ar\005\r\000\000zCz\005\r\244p}?\250\001\r"
    }
  }
  attr {
    key: "random_seed"
    value {
      i: 0
    }
  }
}
node {
  name: "GrowTreeV4_26"
  op: "GrowTreeV4"
  input: "tree-5_2"
  input: "stats-5_2"
  input: "ProcessInputV4_26"
  input: "^UpdateModelV4_26"
  device: "/device:CPU:0"
  attr {
    key: "params"
    value {
      s: "\"\007\n\005\r\000\000\000\000*\007\n\005\r\000\000\000\0000\n8\350\007`\005j\005\r\000\000 Ar\005\r\000\000zCz\005\r\244p}?\250\001\r"
    }
  }
}
node {
  name: "ToInt32_17/x"
  op: "Const"
  device: "/device:CPU:0"
  attr {
    key: "dtype"
    value {
      type: DT_INT32
    }
  }
  attr {
    key: "value"
    value {
      tensor {
        dtype: DT_INT32
        tensor_shape {
          dim {
            size: 1
          }
        }
        int_val: 0
      }
    }
  }
}
node {
  name: "TraverseTreeV4_28/sparse_input_indices"
  op: "Const"
  device: "/device:CPU:0"
  attr {
    key: "dtype"
    value {
      type: DT_INT64
    }
  }
  attr {
    key: "value"
    value {
      tensor {
        dtype: DT_INT64
        tensor_shape {
          dim {
          }
        }
      }
    }
  }
}
node {
  name: "TraverseTreeV4_28/sparse_input_values"
  op: "Const"
  device: "/device:CPU:0"
  attr {
    key: "dtype"
    value {
      type: DT_FLOAT
    }
  }
  attr {
    key: "value"
    value {
      tensor {
        dtype: DT_FLOAT
        tensor_shape {
          dim {
          }
        }
      }
    }
  }
}
node {
  name: "TraverseTreeV4_28/sparse_input_shape"
  op: "Const"
  device: "/device:CPU:0"
  attr {
    key: "dtype"
    value {
      type: DT_INT64
    }
  }
  attr {
    key: "value"
    value {
      tensor {
        dtype: DT_INT64
        tensor_shape {
          dim {
          }
        }
      }
    }
  }
}
node {
  name: "TraverseTreeV4_28"
  op: "TraverseTreeV4"
  input: "tree-6_2"
  input: "Placeholder_5"
  input: "TraverseTreeV4_28/sparse_input_indices"
  input: "TraverseTreeV4_28/sparse_input_values"
  input: "TraverseTreeV4_28/sparse_input_shape"
  device: "/device:CPU:0"
  attr {
    key: "input_spec"
    value {
      s: "dense_features_size: 2 dense: [{name: dense_features original_type: 0 size: 2}] sparse: []"
    }
  }
  attr {
    key: "params"
    value {
      s: "\"\007\n\005\r\000\000\000\000*\007\n\005\r\000\000\000\0000\n8\350\007`\005j\005\r\000\000 Ar\005\r\000\000zCz\005\r\244p}?\250\001\r"
    }
  }
}
node {
  name: "UpdateModelV4_27/input_weights"
  op: "Const"
  device: "/device:CPU:0"
  attr {
    key: "dtype"
    value {
      type: DT_FLOAT
    }
  }
  attr {
    key: "value"
    value {
      tensor {
        dtype: DT_FLOAT
        tensor_shape {
          dim {
          }
        }
      }
    }
  }
}
node {
  name: "UpdateModelV4_27"
  op: "UpdateModelV4"
  input: "tree-6_2"
  input: "TraverseTreeV4_28"
  input: "ToFloat_5"
  input: "UpdateModelV4_27/input_weights"
  device: "/device:CPU:0"
  attr {
    key: "params"
    value {
      s: "\"\007\n\005\r\000\000\000\000*\007\n\005\r\000\000\000\0000\n8\350\007`\005j\005\r\000\000 Ar\005\r\000\000zCz\005\r\244p}?\250\001\r"
    }
  }
}
node {
  name: "ProcessInputV4_27/sparse_input_indices"
  op: "Const"
  device: "/device:CPU:0"
  attr {
    key: "dtype"
    value {
      type: DT_INT64
    }
  }
  attr {
    key: "value"
    value {
      tensor {
        dtype: DT_INT64
        tensor_shape {
          dim {
          }
        }
      }
    }
  }
}
node {
  name: "ProcessInputV4_27/sparse_input_values"
  op: "Const"
  device: "/device:CPU:0"
  attr {
    key: "dtype"
    value {
      type: DT_FLOAT
    }
  }
  attr {
    key: "value"
    value {
      tensor {
        dtype: DT_FLOAT
        tensor_shape {
          dim {
          }
        }
      }
    }
  }
}
node {
  name: "ProcessInputV4_27/sparse_input_shape"
  op: "Const"
  device: "/device:CPU:0"
  attr {
    key: "dtype"
    value {
      type: DT_INT64
    }
  }
  attr {
    key: "value"
    value {
      tensor {
        dtype: DT_INT64
        tensor_shape {
          dim {
          }
        }
      }
    }
  }
}
node {
  name: "ProcessInputV4_27/input_weights"
  op: "Const"
  device: "/device:CPU:0"
  attr {
    key: "dtype"
    value {
      type: DT_FLOAT
    }
  }
  attr {
    key: "value"
    value {
      tensor {
        dtype: DT_FLOAT
        tensor_shape {
          dim {
          }
        }
      }
    }
  }
}
node {
  name: "ProcessInputV4_27"
  op: "ProcessInputV4"
  input: "tree-6_2"
  input: "stats-6_2"
  input: "Placeholder_5"
  input: "ProcessInputV4_27/sparse_input_indices"
  input: "ProcessInputV4_27/sparse_input_values"
  input: "ProcessInputV4_27/sparse_input_shape"
  input: "ToFloat_5"
  input: "ProcessInputV4_27/input_weights"
  input: "TraverseTreeV4_28"
  device: "/device:CPU:0"
  attr {
    key: "input_spec"
    value {
      s: "dense_features_size: 2 dense: [{name: dense_features original_type: 0 size: 2}] sparse: []"
    }
  }
  attr {
    key: "params"
    value {
      s: "\"\007\n\005\r\000\000\000\000*\007\n\005\r\000\000\000\0000\n8\350\007`\005j\005\r\000\000 Ar\005\r\000\000zCz\005\r\244p}?\250\001\r"
    }
  }
  attr {
    key: "random_seed"
    value {
      i: 0
    }
  }
}
node {
  name: "GrowTreeV4_27"
  op: "GrowTreeV4"
  input: "tree-6_2"
  input: "stats-6_2"
  input: "ProcessInputV4_27"
  input: "^UpdateModelV4_27"
  device: "/device:CPU:0"
  attr {
    key: "params"
    value {
      s: "\"\007\n\005\r\000\000\000\000*\007\n\005\r\000\000\000\0000\n8\350\007`\005j\005\r\000\000 Ar\005\r\000\000zCz\005\r\244p}?\250\001\r"
    }
  }
}
node {
  name: "ToInt32_18/x"
  op: "Const"
  device: "/device:CPU:0"
  attr {
    key: "dtype"
    value {
      type: DT_INT32
    }
  }
  attr {
    key: "value"
    value {
      tensor {
        dtype: DT_INT32
        tensor_shape {
          dim {
            size: 1
          }
        }
        int_val: 0
      }
    }
  }
}
node {
  name: "TraverseTreeV4_29/sparse_input_indices"
  op: "Const"
  device: "/device:CPU:0"
  attr {
    key: "dtype"
    value {
      type: DT_INT64
    }
  }
  attr {
    key: "value"
    value {
      tensor {
        dtype: DT_INT64
        tensor_shape {
          dim {
          }
        }
      }
    }
  }
}
node {
  name: "TraverseTreeV4_29/sparse_input_values"
  op: "Const"
  device: "/device:CPU:0"
  attr {
    key: "dtype"
    value {
      type: DT_FLOAT
    }
  }
  attr {
    key: "value"
    value {
      tensor {
        dtype: DT_FLOAT
        tensor_shape {
          dim {
          }
        }
      }
    }
  }
}
node {
  name: "TraverseTreeV4_29/sparse_input_shape"
  op: "Const"
  device: "/device:CPU:0"
  attr {
    key: "dtype"
    value {
      type: DT_INT64
    }
  }
  attr {
    key: "value"
    value {
      tensor {
        dtype: DT_INT64
        tensor_shape {
          dim {
          }
        }
      }
    }
  }
}
node {
  name: "TraverseTreeV4_29"
  op: "TraverseTreeV4"
  input: "tree-7_2"
  input: "Placeholder_5"
  input: "TraverseTreeV4_29/sparse_input_indices"
  input: "TraverseTreeV4_29/sparse_input_values"
  input: "TraverseTreeV4_29/sparse_input_shape"
  device: "/device:CPU:0"
  attr {
    key: "input_spec"
    value {
      s: "dense_features_size: 2 dense: [{name: dense_features original_type: 0 size: 2}] sparse: []"
    }
  }
  attr {
    key: "params"
    value {
      s: "\"\007\n\005\r\000\000\000\000*\007\n\005\r\000\000\000\0000\n8\350\007`\005j\005\r\000\000 Ar\005\r\000\000zCz\005\r\244p}?\250\001\r"
    }
  }
}
node {
  name: "UpdateModelV4_28/input_weights"
  op: "Const"
  device: "/device:CPU:0"
  attr {
    key: "dtype"
    value {
      type: DT_FLOAT
    }
  }
  attr {
    key: "value"
    value {
      tensor {
        dtype: DT_FLOAT
        tensor_shape {
          dim {
          }
        }
      }
    }
  }
}
node {
  name: "UpdateModelV4_28"
  op: "UpdateModelV4"
  input: "tree-7_2"
  input: "TraverseTreeV4_29"
  input: "ToFloat_5"
  input: "UpdateModelV4_28/input_weights"
  device: "/device:CPU:0"
  attr {
    key: "params"
    value {
      s: "\"\007\n\005\r\000\000\000\000*\007\n\005\r\000\000\000\0000\n8\350\007`\005j\005\r\000\000 Ar\005\r\000\000zCz\005\r\244p}?\250\001\r"
    }
  }
}
node {
  name: "ProcessInputV4_28/sparse_input_indices"
  op: "Const"
  device: "/device:CPU:0"
  attr {
    key: "dtype"
    value {
      type: DT_INT64
    }
  }
  attr {
    key: "value"
    value {
      tensor {
        dtype: DT_INT64
        tensor_shape {
          dim {
          }
        }
      }
    }
  }
}
node {
  name: "ProcessInputV4_28/sparse_input_values"
  op: "Const"
  device: "/device:CPU:0"
  attr {
    key: "dtype"
    value {
      type: DT_FLOAT
    }
  }
  attr {
    key: "value"
    value {
      tensor {
        dtype: DT_FLOAT
        tensor_shape {
          dim {
          }
        }
      }
    }
  }
}
node {
  name: "ProcessInputV4_28/sparse_input_shape"
  op: "Const"
  device: "/device:CPU:0"
  attr {
    key: "dtype"
    value {
      type: DT_INT64
    }
  }
  attr {
    key: "value"
    value {
      tensor {
        dtype: DT_INT64
        tensor_shape {
          dim {
          }
        }
      }
    }
  }
}
node {
  name: "ProcessInputV4_28/input_weights"
  op: "Const"
  device: "/device:CPU:0"
  attr {
    key: "dtype"
    value {
      type: DT_FLOAT
    }
  }
  attr {
    key: "value"
    value {
      tensor {
        dtype: DT_FLOAT
        tensor_shape {
          dim {
          }
        }
      }
    }
  }
}
node {
  name: "ProcessInputV4_28"
  op: "ProcessInputV4"
  input: "tree-7_2"
  input: "stats-7_2"
  input: "Placeholder_5"
  input: "ProcessInputV4_28/sparse_input_indices"
  input: "ProcessInputV4_28/sparse_input_values"
  input: "ProcessInputV4_28/sparse_input_shape"
  input: "ToFloat_5"
  input: "ProcessInputV4_28/input_weights"
  input: "TraverseTreeV4_29"
  device: "/device:CPU:0"
  attr {
    key: "input_spec"
    value {
      s: "dense_features_size: 2 dense: [{name: dense_features original_type: 0 size: 2}] sparse: []"
    }
  }
  attr {
    key: "params"
    value {
      s: "\"\007\n\005\r\000\000\000\000*\007\n\005\r\000\000\000\0000\n8\350\007`\005j\005\r\000\000 Ar\005\r\000\000zCz\005\r\244p}?\250\001\r"
    }
  }
  attr {
    key: "random_seed"
    value {
      i: 0
    }
  }
}
node {
  name: "GrowTreeV4_28"
  op: "GrowTreeV4"
  input: "tree-7_2"
  input: "stats-7_2"
  input: "ProcessInputV4_28"
  input: "^UpdateModelV4_28"
  device: "/device:CPU:0"
  attr {
    key: "params"
    value {
      s: "\"\007\n\005\r\000\000\000\000*\007\n\005\r\000\000\000\0000\n8\350\007`\005j\005\r\000\000 Ar\005\r\000\000zCz\005\r\244p}?\250\001\r"
    }
  }
}
node {
  name: "ToInt32_19/x"
  op: "Const"
  device: "/device:CPU:0"
  attr {
    key: "dtype"
    value {
      type: DT_INT32
    }
  }
  attr {
    key: "value"
    value {
      tensor {
        dtype: DT_INT32
        tensor_shape {
          dim {
            size: 1
          }
        }
        int_val: 0
      }
    }
  }
}
node {
  name: "TraverseTreeV4_30/sparse_input_indices"
  op: "Const"
  device: "/device:CPU:0"
  attr {
    key: "dtype"
    value {
      type: DT_INT64
    }
  }
  attr {
    key: "value"
    value {
      tensor {
        dtype: DT_INT64
        tensor_shape {
          dim {
          }
        }
      }
    }
  }
}
node {
  name: "TraverseTreeV4_30/sparse_input_values"
  op: "Const"
  device: "/device:CPU:0"
  attr {
    key: "dtype"
    value {
      type: DT_FLOAT
    }
  }
  attr {
    key: "value"
    value {
      tensor {
        dtype: DT_FLOAT
        tensor_shape {
          dim {
          }
        }
      }
    }
  }
}
node {
  name: "TraverseTreeV4_30/sparse_input_shape"
  op: "Const"
  device: "/device:CPU:0"
  attr {
    key: "dtype"
    value {
      type: DT_INT64
    }
  }
  attr {
    key: "value"
    value {
      tensor {
        dtype: DT_INT64
        tensor_shape {
          dim {
          }
        }
      }
    }
  }
}
node {
  name: "TraverseTreeV4_30"
  op: "TraverseTreeV4"
  input: "tree-8_2"
  input: "Placeholder_5"
  input: "TraverseTreeV4_30/sparse_input_indices"
  input: "TraverseTreeV4_30/sparse_input_values"
  input: "TraverseTreeV4_30/sparse_input_shape"
  device: "/device:CPU:0"
  attr {
    key: "input_spec"
    value {
      s: "dense_features_size: 2 dense: [{name: dense_features original_type: 0 size: 2}] sparse: []"
    }
  }
  attr {
    key: "params"
    value {
      s: "\"\007\n\005\r\000\000\000\000*\007\n\005\r\000\000\000\0000\n8\350\007`\005j\005\r\000\000 Ar\005\r\000\000zCz\005\r\244p}?\250\001\r"
    }
  }
}
node {
  name: "UpdateModelV4_29/input_weights"
  op: "Const"
  device: "/device:CPU:0"
  attr {
    key: "dtype"
    value {
      type: DT_FLOAT
    }
  }
  attr {
    key: "value"
    value {
      tensor {
        dtype: DT_FLOAT
        tensor_shape {
          dim {
          }
        }
      }
    }
  }
}
node {
  name: "UpdateModelV4_29"
  op: "UpdateModelV4"
  input: "tree-8_2"
  input: "TraverseTreeV4_30"
  input: "ToFloat_5"
  input: "UpdateModelV4_29/input_weights"
  device: "/device:CPU:0"
  attr {
    key: "params"
    value {
      s: "\"\007\n\005\r\000\000\000\000*\007\n\005\r\000\000\000\0000\n8\350\007`\005j\005\r\000\000 Ar\005\r\000\000zCz\005\r\244p}?\250\001\r"
    }
  }
}
node {
  name: "ProcessInputV4_29/sparse_input_indices"
  op: "Const"
  device: "/device:CPU:0"
  attr {
    key: "dtype"
    value {
      type: DT_INT64
    }
  }
  attr {
    key: "value"
    value {
      tensor {
        dtype: DT_INT64
        tensor_shape {
          dim {
          }
        }
      }
    }
  }
}
node {
  name: "ProcessInputV4_29/sparse_input_values"
  op: "Const"
  device: "/device:CPU:0"
  attr {
    key: "dtype"
    value {
      type: DT_FLOAT
    }
  }
  attr {
    key: "value"
    value {
      tensor {
        dtype: DT_FLOAT
        tensor_shape {
          dim {
          }
        }
      }
    }
  }
}
node {
  name: "ProcessInputV4_29/sparse_input_shape"
  op: "Const"
  device: "/device:CPU:0"
  attr {
    key: "dtype"
    value {
      type: DT_INT64
    }
  }
  attr {
    key: "value"
    value {
      tensor {
        dtype: DT_INT64
        tensor_shape {
          dim {
          }
        }
      }
    }
  }
}
node {
  name: "ProcessInputV4_29/input_weights"
  op: "Const"
  device: "/device:CPU:0"
  attr {
    key: "dtype"
    value {
      type: DT_FLOAT
    }
  }
  attr {
    key: "value"
    value {
      tensor {
        dtype: DT_FLOAT
        tensor_shape {
          dim {
          }
        }
      }
    }
  }
}
node {
  name: "ProcessInputV4_29"
  op: "ProcessInputV4"
  input: "tree-8_2"
  input: "stats-8_2"
  input: "Placeholder_5"
  input: "ProcessInputV4_29/sparse_input_indices"
  input: "ProcessInputV4_29/sparse_input_values"
  input: "ProcessInputV4_29/sparse_input_shape"
  input: "ToFloat_5"
  input: "ProcessInputV4_29/input_weights"
  input: "TraverseTreeV4_30"
  device: "/device:CPU:0"
  attr {
    key: "input_spec"
    value {
      s: "dense_features_size: 2 dense: [{name: dense_features original_type: 0 size: 2}] sparse: []"
    }
  }
  attr {
    key: "params"
    value {
      s: "\"\007\n\005\r\000\000\000\000*\007\n\005\r\000\000\000\0000\n8\350\007`\005j\005\r\000\000 Ar\005\r\000\000zCz\005\r\244p}?\250\001\r"
    }
  }
  attr {
    key: "random_seed"
    value {
      i: 0
    }
  }
}
node {
  name: "GrowTreeV4_29"
  op: "GrowTreeV4"
  input: "tree-8_2"
  input: "stats-8_2"
  input: "ProcessInputV4_29"
  input: "^UpdateModelV4_29"
  device: "/device:CPU:0"
  attr {
    key: "params"
    value {
      s: "\"\007\n\005\r\000\000\000\000*\007\n\005\r\000\000\000\0000\n8\350\007`\005j\005\r\000\000 Ar\005\r\000\000zCz\005\r\244p}?\250\001\r"
    }
  }
}
node {
  name: "ToInt32_20/x"
  op: "Const"
  device: "/device:CPU:0"
  attr {
    key: "dtype"
    value {
      type: DT_INT32
    }
  }
  attr {
    key: "value"
    value {
      tensor {
        dtype: DT_INT32
        tensor_shape {
          dim {
            size: 1
          }
        }
        int_val: 0
      }
    }
  }
}
node {
  name: "TraverseTreeV4_31/sparse_input_indices"
  op: "Const"
  device: "/device:CPU:0"
  attr {
    key: "dtype"
    value {
      type: DT_INT64
    }
  }
  attr {
    key: "value"
    value {
      tensor {
        dtype: DT_INT64
        tensor_shape {
          dim {
          }
        }
      }
    }
  }
}
node {
  name: "TraverseTreeV4_31/sparse_input_values"
  op: "Const"
  device: "/device:CPU:0"
  attr {
    key: "dtype"
    value {
      type: DT_FLOAT
    }
  }
  attr {
    key: "value"
    value {
      tensor {
        dtype: DT_FLOAT
        tensor_shape {
          dim {
          }
        }
      }
    }
  }
}
node {
  name: "TraverseTreeV4_31/sparse_input_shape"
  op: "Const"
  device: "/device:CPU:0"
  attr {
    key: "dtype"
    value {
      type: DT_INT64
    }
  }
  attr {
    key: "value"
    value {
      tensor {
        dtype: DT_INT64
        tensor_shape {
          dim {
          }
        }
      }
    }
  }
}
node {
  name: "TraverseTreeV4_31"
  op: "TraverseTreeV4"
  input: "tree-9_2"
  input: "Placeholder_5"
  input: "TraverseTreeV4_31/sparse_input_indices"
  input: "TraverseTreeV4_31/sparse_input_values"
  input: "TraverseTreeV4_31/sparse_input_shape"
  device: "/device:CPU:0"
  attr {
    key: "input_spec"
    value {
      s: "dense_features_size: 2 dense: [{name: dense_features original_type: 0 size: 2}] sparse: []"
    }
  }
  attr {
    key: "params"
    value {
      s: "\"\007\n\005\r\000\000\000\000*\007\n\005\r\000\000\000\0000\n8\350\007`\005j\005\r\000\000 Ar\005\r\000\000zCz\005\r\244p}?\250\001\r"
    }
  }
}
node {
  name: "UpdateModelV4_30/input_weights"
  op: "Const"
  device: "/device:CPU:0"
  attr {
    key: "dtype"
    value {
      type: DT_FLOAT
    }
  }
  attr {
    key: "value"
    value {
      tensor {
        dtype: DT_FLOAT
        tensor_shape {
          dim {
          }
        }
      }
    }
  }
}
node {
  name: "UpdateModelV4_30"
  op: "UpdateModelV4"
  input: "tree-9_2"
  input: "TraverseTreeV4_31"
  input: "ToFloat_5"
  input: "UpdateModelV4_30/input_weights"
  device: "/device:CPU:0"
  attr {
    key: "params"
    value {
      s: "\"\007\n\005\r\000\000\000\000*\007\n\005\r\000\000\000\0000\n8\350\007`\005j\005\r\000\000 Ar\005\r\000\000zCz\005\r\244p}?\250\001\r"
    }
  }
}
node {
  name: "ProcessInputV4_30/sparse_input_indices"
  op: "Const"
  device: "/device:CPU:0"
  attr {
    key: "dtype"
    value {
      type: DT_INT64
    }
  }
  attr {
    key: "value"
    value {
      tensor {
        dtype: DT_INT64
        tensor_shape {
          dim {
          }
        }
      }
    }
  }
}
node {
  name: "ProcessInputV4_30/sparse_input_values"
  op: "Const"
  device: "/device:CPU:0"
  attr {
    key: "dtype"
    value {
      type: DT_FLOAT
    }
  }
  attr {
    key: "value"
    value {
      tensor {
        dtype: DT_FLOAT
        tensor_shape {
          dim {
          }
        }
      }
    }
  }
}
node {
  name: "ProcessInputV4_30/sparse_input_shape"
  op: "Const"
  device: "/device:CPU:0"
  attr {
    key: "dtype"
    value {
      type: DT_INT64
    }
  }
  attr {
    key: "value"
    value {
      tensor {
        dtype: DT_INT64
        tensor_shape {
          dim {
          }
        }
      }
    }
  }
}
node {
  name: "ProcessInputV4_30/input_weights"
  op: "Const"
  device: "/device:CPU:0"
  attr {
    key: "dtype"
    value {
      type: DT_FLOAT
    }
  }
  attr {
    key: "value"
    value {
      tensor {
        dtype: DT_FLOAT
        tensor_shape {
          dim {
          }
        }
      }
    }
  }
}
node {
  name: "ProcessInputV4_30"
  op: "ProcessInputV4"
  input: "tree-9_2"
  input: "stats-9_2"
  input: "Placeholder_5"
  input: "ProcessInputV4_30/sparse_input_indices"
  input: "ProcessInputV4_30/sparse_input_values"
  input: "ProcessInputV4_30/sparse_input_shape"
  input: "ToFloat_5"
  input: "ProcessInputV4_30/input_weights"
  input: "TraverseTreeV4_31"
  device: "/device:CPU:0"
  attr {
    key: "input_spec"
    value {
      s: "dense_features_size: 2 dense: [{name: dense_features original_type: 0 size: 2}] sparse: []"
    }
  }
  attr {
    key: "params"
    value {
      s: "\"\007\n\005\r\000\000\000\000*\007\n\005\r\000\000\000\0000\n8\350\007`\005j\005\r\000\000 Ar\005\r\000\000zCz\005\r\244p}?\250\001\r"
    }
  }
  attr {
    key: "random_seed"
    value {
      i: 0
    }
  }
}
node {
  name: "GrowTreeV4_30"
  op: "GrowTreeV4"
  input: "tree-9_2"
  input: "stats-9_2"
  input: "ProcessInputV4_30"
  input: "^UpdateModelV4_30"
  device: "/device:CPU:0"
  attr {
    key: "params"
    value {
      s: "\"\007\n\005\r\000\000\000\000*\007\n\005\r\000\000\000\0000\n8\350\007`\005j\005\r\000\000 Ar\005\r\000\000zCz\005\r\244p}?\250\001\r"
    }
  }
}
node {
  name: "train_3"
  op: "NoOp"
  input: "^GrowTreeV4_21"
  input: "^GrowTreeV4_22"
  input: "^GrowTreeV4_23"
  input: "^GrowTreeV4_24"
  input: "^GrowTreeV4_25"
  input: "^GrowTreeV4_26"
  input: "^GrowTreeV4_27"
  input: "^GrowTreeV4_28"
  input: "^GrowTreeV4_29"
  input: "^GrowTreeV4_30"
  device: "/device:CPU:0"
}
node {
  name: "TreeSize_11"
  op: "TreeSize"
  input: "tree-0_2"
  device: "/device:CPU:0"
}
node {
  name: "TreeSize_12"
  op: "TreeSize"
  input: "tree-1_2"
  device: "/device:CPU:0"
}
node {
  name: "TreeSize_13"
  op: "TreeSize"
  input: "tree-2_2"
  device: "/device:CPU:0"
}
node {
  name: "TreeSize_14"
  op: "TreeSize"
  input: "tree-3_2"
  device: "/device:CPU:0"
}
node {
  name: "TreeSize_15"
  op: "TreeSize"
  input: "tree-4_2"
  device: "/device:CPU:0"
}
node {
  name: "TreeSize_16"
  op: "TreeSize"
  input: "tree-5_2"
  device: "/device:CPU:0"
}
node {
  name: "TreeSize_17"
  op: "TreeSize"
  input: "tree-6_2"
  device: "/device:CPU:0"
}
node {
  name: "TreeSize_18"
  op: "TreeSize"
  input: "tree-7_2"
  device: "/device:CPU:0"
}
node {
  name: "TreeSize_19"
  op: "TreeSize"
  input: "tree-8_2"
  device: "/device:CPU:0"
}
node {
  name: "TreeSize_20"
  op: "TreeSize"
  input: "tree-9_2"
  device: "/device:CPU:0"
}
node {
  name: "stack_4"
  op: "Pack"
  input: "TreeSize_11"
  input: "TreeSize_12"
  input: "TreeSize_13"
  input: "TreeSize_14"
  input: "TreeSize_15"
  input: "TreeSize_16"
  input: "TreeSize_17"
  input: "TreeSize_18"
  input: "TreeSize_19"
  input: "TreeSize_20"
  attr {
    key: "N"
    value {
      i: 10
    }
  }
  attr {
    key: "T"
    value {
      type: DT_INT32
    }
  }
  attr {
    key: "axis"
    value {
      i: 0
    }
  }
}
node {
  name: "ToFloat_6"
  op: "Cast"
  input: "stack_4"
  attr {
    key: "DstT"
    value {
      type: DT_FLOAT
    }
  }
  attr {
    key: "SrcT"
    value {
      type: DT_INT32
    }
  }
  attr {
    key: "Truncate"
    value {
      b: false
    }
  }
}
node {
  name: "Const_2"
  op: "Const"
  attr {
    key: "dtype"
    value {
      type: DT_INT32
    }
  }
  attr {
    key: "value"
    value {
      tensor {
        dtype: DT_INT32
        tensor_shape {
          dim {
            size: 1
          }
        }
        int_val: 0
      }
    }
  }
}
node {
  name: "Mean_2"
  op: "Mean"
  input: "ToFloat_6"
  input: "Const_2"
  attr {
    key: "T"
    value {
      type: DT_FLOAT
    }
  }
  attr {
    key: "Tidx"
    value {
      type: DT_INT32
    }
  }
  attr {
    key: "keep_dims"
    value {
      b: false
    }
  }
}
node {
  name: "training_loss"
  op: "Neg"
  input: "Mean_2"
  attr {
    key: "T"
    value {
      type: DT_FLOAT
    }
  }
}
versions {
  producer: 27
}
